node {
  name: "Variable/initial_value"
  op: "Const"
  attr {
    key: "dtype"
    value {
      type: DT_FLOAT
    }
  }
  attr {
    key: "value"
    value {
      tensor {
        dtype: DT_FLOAT
        tensor_shape {
          dim {
            size: 1
          }
        }
        float_val: 0.30000001192092896
      }
    }
  }
}
node {
  name: "Variable"
  op: "VariableV2"
  attr {
    key: "container"
    value {
      s: ""
    }
  }
  attr {
    key: "dtype"
    value {
      type: DT_FLOAT
    }
  }
  attr {
    key: "shape"
    value {
      shape {
        dim {
          size: 1
        }
      }
    }
  }
  attr {
    key: "shared_name"
    value {
      s: ""
    }
  }
}
node {
  name: "Variable/Assign"
  op: "Assign"
  input: "Variable"
  input: "Variable/initial_value"
  attr {
    key: "T"
    value {
      type: DT_FLOAT
    }
  }
  attr {
    key: "_class"
    value {
      list {
        s: "loc:@Variable"
      }
    }
  }
  attr {
    key: "use_locking"
    value {
      b: true
    }
  }
  attr {
    key: "validate_shape"
    value {
      b: true
    }
  }
}
node {
  name: "Variable/read"
  op: "Identity"
  input: "Variable"
  attr {
    key: "T"
    value {
      type: DT_FLOAT
    }
  }
  attr {
    key: "_class"
    value {
      list {
        s: "loc:@Variable"
      }
    }
  }
}
node {
  name: "Variable_1/initial_value"
  op: "Const"
  attr {
    key: "dtype"
    value {
      type: DT_FLOAT
    }
  }
  attr {
    key: "value"
    value {
      tensor {
        dtype: DT_FLOAT
        tensor_shape {
          dim {
            size: 1
          }
        }
        float_val: 0.4000000059604645
      }
    }
  }
}
node {
  name: "Variable_1"
  op: "VariableV2"
  attr {
    key: "container"
    value {
      s: ""
    }
  }
  attr {
    key: "dtype"
    value {
      type: DT_FLOAT
    }
  }
  attr {
    key: "shape"
    value {
      shape {
        dim {
          size: 1
        }
      }
    }
  }
  attr {
    key: "shared_name"
    value {
      s: ""
    }
  }
}
node {
  name: "Variable_1/Assign"
  op: "Assign"
  input: "Variable_1"
  input: "Variable_1/initial_value"
  attr {
    key: "T"
    value {
      type: DT_FLOAT
    }
  }
  attr {
    key: "_class"
    value {
      list {
        s: "loc:@Variable_1"
      }
    }
  }
  attr {
    key: "use_locking"
    value {
      b: true
    }
  }
  attr {
    key: "validate_shape"
    value {
      b: true
    }
  }
}
node {
  name: "Variable_1/read"
  op: "Identity"
  input: "Variable_1"
  attr {
    key: "T"
    value {
      type: DT_FLOAT
    }
  }
  attr {
    key: "_class"
    value {
      list {
        s: "loc:@Variable_1"
      }
    }
  }
}
node {
  name: "Placeholder"
  op: "Placeholder"
  attr {
    key: "dtype"
    value {
      type: DT_FLOAT
    }
  }
  attr {
    key: "shape"
    value {
      shape {
        dim {
          size: -1
        }
        dim {
          size: 48
        }
      }
    }
  }
}
node {
  name: "Placeholder_1"
  op: "Placeholder"
  attr {
    key: "dtype"
    value {
      type: DT_FLOAT
    }
  }
  attr {
    key: "shape"
    value {
      shape {
        dim {
          size: -1
        }
        dim {
          size: 3
        }
      }
    }
  }
}
node {
  name: "zeros"
  op: "Const"
  attr {
    key: "dtype"
    value {
      type: DT_FLOAT
    }
  }
  attr {
    key: "value"
    value {
      tensor {
        dtype: DT_FLOAT
        tensor_shape {
          dim {
            size: 48
          }
          dim {
            size: 3
          }
        }
        float_val: 0.0
      }
    }
  }
}
node {
  name: "Variable_2"
  op: "VariableV2"
  attr {
    key: "container"
    value {
      s: ""
    }
  }
  attr {
    key: "dtype"
    value {
      type: DT_FLOAT
    }
  }
  attr {
    key: "shape"
    value {
      shape {
        dim {
          size: 48
        }
        dim {
          size: 3
        }
      }
    }
  }
  attr {
    key: "shared_name"
    value {
      s: ""
    }
  }
}
node {
  name: "Variable_2/Assign"
  op: "Assign"
  input: "Variable_2"
  input: "zeros"
  attr {
    key: "T"
    value {
      type: DT_FLOAT
    }
  }
  attr {
    key: "_class"
    value {
      list {
        s: "loc:@Variable_2"
      }
    }
  }
  attr {
    key: "use_locking"
    value {
      b: true
    }
  }
  attr {
    key: "validate_shape"
    value {
      b: true
    }
  }
}
node {
  name: "Variable_2/read"
  op: "Identity"
  input: "Variable_2"
  attr {
    key: "T"
    value {
      type: DT_FLOAT
    }
  }
  attr {
    key: "_class"
    value {
      list {
        s: "loc:@Variable_2"
      }
    }
  }
}
node {
  name: "zeros_1"
  op: "Const"
  attr {
    key: "dtype"
    value {
      type: DT_FLOAT
    }
  }
  attr {
    key: "value"
    value {
      tensor {
        dtype: DT_FLOAT
        tensor_shape {
          dim {
            size: 3
          }
        }
        float_val: 0.0
      }
    }
  }
}
node {
  name: "Variable_3"
  op: "VariableV2"
  attr {
    key: "container"
    value {
      s: ""
    }
  }
  attr {
    key: "dtype"
    value {
      type: DT_FLOAT
    }
  }
  attr {
    key: "shape"
    value {
      shape {
        dim {
          size: 3
        }
      }
    }
  }
  attr {
    key: "shared_name"
    value {
      s: ""
    }
  }
}
node {
  name: "Variable_3/Assign"
  op: "Assign"
  input: "Variable_3"
  input: "zeros_1"
  attr {
    key: "T"
    value {
      type: DT_FLOAT
    }
  }
  attr {
    key: "_class"
    value {
      list {
        s: "loc:@Variable_3"
      }
    }
  }
  attr {
    key: "use_locking"
    value {
      b: true
    }
  }
  attr {
    key: "validate_shape"
    value {
      b: true
    }
  }
}
node {
  name: "Variable_3/read"
  op: "Identity"
  input: "Variable_3"
  attr {
    key: "T"
    value {
      type: DT_FLOAT
    }
  }
  attr {
    key: "_class"
    value {
      list {
        s: "loc:@Variable_3"
      }
    }
  }
}
node {
  name: "Placeholder_2"
  op: "Placeholder"
  attr {
    key: "dtype"
    value {
      type: DT_FLOAT
    }
  }
  attr {
    key: "shape"
    value {
      shape {
        dim {
          size: -1
        }
        dim {
          size: 48
        }
      }
    }
  }
}
node {
  name: "Placeholder_3"
  op: "Placeholder"
  attr {
    key: "dtype"
    value {
      type: DT_FLOAT
    }
  }
  attr {
    key: "shape"
    value {
      shape {
        dim {
          size: -1
        }
        dim {
          size: 8
        }
      }
    }
  }
}
node {
  name: "random_normal/shape"
  op: "Const"
  attr {
    key: "dtype"
    value {
      type: DT_INT32
    }
  }
  attr {
    key: "value"
    value {
      tensor {
        dtype: DT_INT32
        tensor_shape {
          dim {
            size: 2
          }
        }
        tensor_content: "0\000\000\000F\000\000\000"
      }
    }
  }
}
node {
  name: "random_normal/mean"
  op: "Const"
  attr {
    key: "dtype"
    value {
      type: DT_FLOAT
    }
  }
  attr {
    key: "value"
    value {
      tensor {
        dtype: DT_FLOAT
        tensor_shape {
        }
        float_val: 0.0
      }
    }
  }
}
node {
  name: "random_normal/stddev"
  op: "Const"
  attr {
    key: "dtype"
    value {
      type: DT_FLOAT
    }
  }
  attr {
    key: "value"
    value {
      tensor {
        dtype: DT_FLOAT
        tensor_shape {
        }
        float_val: 1.0
      }
    }
  }
}
node {
  name: "random_normal/RandomStandardNormal"
  op: "RandomStandardNormal"
  input: "random_normal/shape"
  attr {
    key: "T"
    value {
      type: DT_INT32
    }
  }
  attr {
    key: "dtype"
    value {
      type: DT_FLOAT
    }
  }
  attr {
    key: "seed"
    value {
      i: 0
    }
  }
  attr {
    key: "seed2"
    value {
      i: 0
    }
  }
}
node {
  name: "random_normal/mul"
  op: "Mul"
  input: "random_normal/RandomStandardNormal"
  input: "random_normal/stddev"
  attr {
    key: "T"
    value {
      type: DT_FLOAT
    }
  }
}
node {
  name: "random_normal"
  op: "Add"
  input: "random_normal/mul"
  input: "random_normal/mean"
  attr {
    key: "T"
    value {
      type: DT_FLOAT
    }
  }
}
node {
  name: "Variable_4"
  op: "VariableV2"
  attr {
    key: "container"
    value {
      s: ""
    }
  }
  attr {
    key: "dtype"
    value {
      type: DT_FLOAT
    }
  }
  attr {
    key: "shape"
    value {
      shape {
        dim {
          size: 48
        }
        dim {
          size: 70
        }
      }
    }
  }
  attr {
    key: "shared_name"
    value {
      s: ""
    }
  }
}
node {
  name: "Variable_4/Assign"
  op: "Assign"
  input: "Variable_4"
  input: "random_normal"
  attr {
    key: "T"
    value {
      type: DT_FLOAT
    }
  }
  attr {
    key: "_class"
    value {
      list {
        s: "loc:@Variable_4"
      }
    }
  }
  attr {
    key: "use_locking"
    value {
      b: true
    }
  }
  attr {
    key: "validate_shape"
    value {
      b: true
    }
  }
}
node {
  name: "Variable_4/read"
  op: "Identity"
  input: "Variable_4"
  attr {
    key: "T"
    value {
      type: DT_FLOAT
    }
  }
  attr {
    key: "_class"
    value {
      list {
        s: "loc:@Variable_4"
      }
    }
  }
}
node {
  name: "random_normal_1/shape"
  op: "Const"
  attr {
    key: "dtype"
    value {
      type: DT_INT32
    }
  }
  attr {
    key: "value"
    value {
      tensor {
        dtype: DT_INT32
        tensor_shape {
          dim {
            size: 2
          }
        }
        tensor_content: "F\000\000\000@\000\000\000"
      }
    }
  }
}
node {
  name: "random_normal_1/mean"
  op: "Const"
  attr {
    key: "dtype"
    value {
      type: DT_FLOAT
    }
  }
  attr {
    key: "value"
    value {
      tensor {
        dtype: DT_FLOAT
        tensor_shape {
        }
        float_val: 0.0
      }
    }
  }
}
node {
  name: "random_normal_1/stddev"
  op: "Const"
  attr {
    key: "dtype"
    value {
      type: DT_FLOAT
    }
  }
  attr {
    key: "value"
    value {
      tensor {
        dtype: DT_FLOAT
        tensor_shape {
        }
        float_val: 1.0
      }
    }
  }
}
node {
  name: "random_normal_1/RandomStandardNormal"
  op: "RandomStandardNormal"
  input: "random_normal_1/shape"
  attr {
    key: "T"
    value {
      type: DT_INT32
    }
  }
  attr {
    key: "dtype"
    value {
      type: DT_FLOAT
    }
  }
  attr {
    key: "seed"
    value {
      i: 0
    }
  }
  attr {
    key: "seed2"
    value {
      i: 0
    }
  }
}
node {
  name: "random_normal_1/mul"
  op: "Mul"
  input: "random_normal_1/RandomStandardNormal"
  input: "random_normal_1/stddev"
  attr {
    key: "T"
    value {
      type: DT_FLOAT
    }
  }
}
node {
  name: "random_normal_1"
  op: "Add"
  input: "random_normal_1/mul"
  input: "random_normal_1/mean"
  attr {
    key: "T"
    value {
      type: DT_FLOAT
    }
  }
}
node {
  name: "Variable_5"
  op: "VariableV2"
  attr {
    key: "container"
    value {
      s: ""
    }
  }
  attr {
    key: "dtype"
    value {
      type: DT_FLOAT
    }
  }
  attr {
    key: "shape"
    value {
      shape {
        dim {
          size: 70
        }
        dim {
          size: 64
        }
      }
    }
  }
  attr {
    key: "shared_name"
    value {
      s: ""
    }
  }
}
node {
  name: "Variable_5/Assign"
  op: "Assign"
  input: "Variable_5"
  input: "random_normal_1"
  attr {
    key: "T"
    value {
      type: DT_FLOAT
    }
  }
  attr {
    key: "_class"
    value {
      list {
        s: "loc:@Variable_5"
      }
    }
  }
  attr {
    key: "use_locking"
    value {
      b: true
    }
  }
  attr {
    key: "validate_shape"
    value {
      b: true
    }
  }
}
node {
  name: "Variable_5/read"
  op: "Identity"
  input: "Variable_5"
  attr {
    key: "T"
    value {
      type: DT_FLOAT
    }
  }
  attr {
    key: "_class"
    value {
      list {
        s: "loc:@Variable_5"
      }
    }
  }
}
node {
  name: "random_normal_2/shape"
  op: "Const"
  attr {
    key: "dtype"
    value {
      type: DT_INT32
    }
  }
  attr {
    key: "value"
    value {
      tensor {
        dtype: DT_INT32
        tensor_shape {
          dim {
            size: 2
          }
        }
        tensor_content: "@\000\000\000 \000\000\000"
      }
    }
  }
}
node {
  name: "random_normal_2/mean"
  op: "Const"
  attr {
    key: "dtype"
    value {
      type: DT_FLOAT
    }
  }
  attr {
    key: "value"
    value {
      tensor {
        dtype: DT_FLOAT
        tensor_shape {
        }
        float_val: 0.0
      }
    }
  }
}
node {
  name: "random_normal_2/stddev"
  op: "Const"
  attr {
    key: "dtype"
    value {
      type: DT_FLOAT
    }
  }
  attr {
    key: "value"
    value {
      tensor {
        dtype: DT_FLOAT
        tensor_shape {
        }
        float_val: 1.0
      }
    }
  }
}
node {
  name: "random_normal_2/RandomStandardNormal"
  op: "RandomStandardNormal"
  input: "random_normal_2/shape"
  attr {
    key: "T"
    value {
      type: DT_INT32
    }
  }
  attr {
    key: "dtype"
    value {
      type: DT_FLOAT
    }
  }
  attr {
    key: "seed"
    value {
      i: 0
    }
  }
  attr {
    key: "seed2"
    value {
      i: 0
    }
  }
}
node {
  name: "random_normal_2/mul"
  op: "Mul"
  input: "random_normal_2/RandomStandardNormal"
  input: "random_normal_2/stddev"
  attr {
    key: "T"
    value {
      type: DT_FLOAT
    }
  }
}
node {
  name: "random_normal_2"
  op: "Add"
  input: "random_normal_2/mul"
  input: "random_normal_2/mean"
  attr {
    key: "T"
    value {
      type: DT_FLOAT
    }
  }
}
node {
  name: "Variable_6"
  op: "VariableV2"
  attr {
    key: "container"
    value {
      s: ""
    }
  }
  attr {
    key: "dtype"
    value {
      type: DT_FLOAT
    }
  }
  attr {
    key: "shape"
    value {
      shape {
        dim {
          size: 64
        }
        dim {
          size: 32
        }
      }
    }
  }
  attr {
    key: "shared_name"
    value {
      s: ""
    }
  }
}
node {
  name: "Variable_6/Assign"
  op: "Assign"
  input: "Variable_6"
  input: "random_normal_2"
  attr {
    key: "T"
    value {
      type: DT_FLOAT
    }
  }
  attr {
    key: "_class"
    value {
      list {
        s: "loc:@Variable_6"
      }
    }
  }
  attr {
    key: "use_locking"
    value {
      b: true
    }
  }
  attr {
    key: "validate_shape"
    value {
      b: true
    }
  }
}
node {
  name: "Variable_6/read"
  op: "Identity"
  input: "Variable_6"
  attr {
    key: "T"
    value {
      type: DT_FLOAT
    }
  }
  attr {
    key: "_class"
    value {
      list {
        s: "loc:@Variable_6"
      }
    }
  }
}
node {
  name: "random_normal_3/shape"
  op: "Const"
  attr {
    key: "dtype"
    value {
      type: DT_INT32
    }
  }
  attr {
    key: "value"
    value {
      tensor {
        dtype: DT_INT32
        tensor_shape {
          dim {
            size: 2
          }
        }
        tensor_content: " \000\000\000\020\000\000\000"
      }
    }
  }
}
node {
  name: "random_normal_3/mean"
  op: "Const"
  attr {
    key: "dtype"
    value {
      type: DT_FLOAT
    }
  }
  attr {
    key: "value"
    value {
      tensor {
        dtype: DT_FLOAT
        tensor_shape {
        }
        float_val: 0.0
      }
    }
  }
}
node {
  name: "random_normal_3/stddev"
  op: "Const"
  attr {
    key: "dtype"
    value {
      type: DT_FLOAT
    }
  }
  attr {
    key: "value"
    value {
      tensor {
        dtype: DT_FLOAT
        tensor_shape {
        }
        float_val: 1.0
      }
    }
  }
}
node {
  name: "random_normal_3/RandomStandardNormal"
  op: "RandomStandardNormal"
  input: "random_normal_3/shape"
  attr {
    key: "T"
    value {
      type: DT_INT32
    }
  }
  attr {
    key: "dtype"
    value {
      type: DT_FLOAT
    }
  }
  attr {
    key: "seed"
    value {
      i: 0
    }
  }
  attr {
    key: "seed2"
    value {
      i: 0
    }
  }
}
node {
  name: "random_normal_3/mul"
  op: "Mul"
  input: "random_normal_3/RandomStandardNormal"
  input: "random_normal_3/stddev"
  attr {
    key: "T"
    value {
      type: DT_FLOAT
    }
  }
}
node {
  name: "random_normal_3"
  op: "Add"
  input: "random_normal_3/mul"
  input: "random_normal_3/mean"
  attr {
    key: "T"
    value {
      type: DT_FLOAT
    }
  }
}
node {
  name: "Variable_7"
  op: "VariableV2"
  attr {
    key: "container"
    value {
      s: ""
    }
  }
  attr {
    key: "dtype"
    value {
      type: DT_FLOAT
    }
  }
  attr {
    key: "shape"
    value {
      shape {
        dim {
          size: 32
        }
        dim {
          size: 16
        }
      }
    }
  }
  attr {
    key: "shared_name"
    value {
      s: ""
    }
  }
}
node {
  name: "Variable_7/Assign"
  op: "Assign"
  input: "Variable_7"
  input: "random_normal_3"
  attr {
    key: "T"
    value {
      type: DT_FLOAT
    }
  }
  attr {
    key: "_class"
    value {
      list {
        s: "loc:@Variable_7"
      }
    }
  }
  attr {
    key: "use_locking"
    value {
      b: true
    }
  }
  attr {
    key: "validate_shape"
    value {
      b: true
    }
  }
}
node {
  name: "Variable_7/read"
  op: "Identity"
  input: "Variable_7"
  attr {
    key: "T"
    value {
      type: DT_FLOAT
    }
  }
  attr {
    key: "_class"
    value {
      list {
        s: "loc:@Variable_7"
      }
    }
  }
}
node {
  name: "random_normal_4/shape"
  op: "Const"
  attr {
    key: "dtype"
    value {
      type: DT_INT32
    }
  }
  attr {
    key: "value"
    value {
      tensor {
        dtype: DT_INT32
        tensor_shape {
          dim {
            size: 2
          }
        }
        tensor_content: "\020\000\000\000\010\000\000\000"
      }
    }
  }
}
node {
  name: "random_normal_4/mean"
  op: "Const"
  attr {
    key: "dtype"
    value {
      type: DT_FLOAT
    }
  }
  attr {
    key: "value"
    value {
      tensor {
        dtype: DT_FLOAT
        tensor_shape {
        }
        float_val: 0.0
      }
    }
  }
}
node {
  name: "random_normal_4/stddev"
  op: "Const"
  attr {
    key: "dtype"
    value {
      type: DT_FLOAT
    }
  }
  attr {
    key: "value"
    value {
      tensor {
        dtype: DT_FLOAT
        tensor_shape {
        }
        float_val: 1.0
      }
    }
  }
}
node {
  name: "random_normal_4/RandomStandardNormal"
  op: "RandomStandardNormal"
  input: "random_normal_4/shape"
  attr {
    key: "T"
    value {
      type: DT_INT32
    }
  }
  attr {
    key: "dtype"
    value {
      type: DT_FLOAT
    }
  }
  attr {
    key: "seed"
    value {
      i: 0
    }
  }
  attr {
    key: "seed2"
    value {
      i: 0
    }
  }
}
node {
  name: "random_normal_4/mul"
  op: "Mul"
  input: "random_normal_4/RandomStandardNormal"
  input: "random_normal_4/stddev"
  attr {
    key: "T"
    value {
      type: DT_FLOAT
    }
  }
}
node {
  name: "random_normal_4"
  op: "Add"
  input: "random_normal_4/mul"
  input: "random_normal_4/mean"
  attr {
    key: "T"
    value {
      type: DT_FLOAT
    }
  }
}
node {
  name: "Variable_8"
  op: "VariableV2"
  attr {
    key: "container"
    value {
      s: ""
    }
  }
  attr {
    key: "dtype"
    value {
      type: DT_FLOAT
    }
  }
  attr {
    key: "shape"
    value {
      shape {
        dim {
          size: 16
        }
        dim {
          size: 8
        }
      }
    }
  }
  attr {
    key: "shared_name"
    value {
      s: ""
    }
  }
}
node {
  name: "Variable_8/Assign"
  op: "Assign"
  input: "Variable_8"
  input: "random_normal_4"
  attr {
    key: "T"
    value {
      type: DT_FLOAT
    }
  }
  attr {
    key: "_class"
    value {
      list {
        s: "loc:@Variable_8"
      }
    }
  }
  attr {
    key: "use_locking"
    value {
      b: true
    }
  }
  attr {
    key: "validate_shape"
    value {
      b: true
    }
  }
}
node {
  name: "Variable_8/read"
  op: "Identity"
  input: "Variable_8"
  attr {
    key: "T"
    value {
      type: DT_FLOAT
    }
  }
  attr {
    key: "_class"
    value {
      list {
        s: "loc:@Variable_8"
      }
    }
  }
}
node {
  name: "random_normal_5/shape"
  op: "Const"
  attr {
    key: "dtype"
    value {
      type: DT_INT32
    }
  }
  attr {
    key: "value"
    value {
      tensor {
        dtype: DT_INT32
        tensor_shape {
          dim {
            size: 1
          }
        }
        int_val: 70
      }
    }
  }
}
node {
  name: "random_normal_5/mean"
  op: "Const"
  attr {
    key: "dtype"
    value {
      type: DT_FLOAT
    }
  }
  attr {
    key: "value"
    value {
      tensor {
        dtype: DT_FLOAT
        tensor_shape {
        }
        float_val: 0.0
      }
    }
  }
}
node {
  name: "random_normal_5/stddev"
  op: "Const"
  attr {
    key: "dtype"
    value {
      type: DT_FLOAT
    }
  }
  attr {
    key: "value"
    value {
      tensor {
        dtype: DT_FLOAT
        tensor_shape {
        }
        float_val: 1.0
      }
    }
  }
}
node {
  name: "random_normal_5/RandomStandardNormal"
  op: "RandomStandardNormal"
  input: "random_normal_5/shape"
  attr {
    key: "T"
    value {
      type: DT_INT32
    }
  }
  attr {
    key: "dtype"
    value {
      type: DT_FLOAT
    }
  }
  attr {
    key: "seed"
    value {
      i: 0
    }
  }
  attr {
    key: "seed2"
    value {
      i: 0
    }
  }
}
node {
  name: "random_normal_5/mul"
  op: "Mul"
  input: "random_normal_5/RandomStandardNormal"
  input: "random_normal_5/stddev"
  attr {
    key: "T"
    value {
      type: DT_FLOAT
    }
  }
}
node {
  name: "random_normal_5"
  op: "Add"
  input: "random_normal_5/mul"
  input: "random_normal_5/mean"
  attr {
    key: "T"
    value {
      type: DT_FLOAT
    }
  }
}
node {
  name: "Variable_9"
  op: "VariableV2"
  attr {
    key: "container"
    value {
      s: ""
    }
  }
  attr {
    key: "dtype"
    value {
      type: DT_FLOAT
    }
  }
  attr {
    key: "shape"
    value {
      shape {
        dim {
          size: 70
        }
      }
    }
  }
  attr {
    key: "shared_name"
    value {
      s: ""
    }
  }
}
node {
  name: "Variable_9/Assign"
  op: "Assign"
  input: "Variable_9"
  input: "random_normal_5"
  attr {
    key: "T"
    value {
      type: DT_FLOAT
    }
  }
  attr {
    key: "_class"
    value {
      list {
        s: "loc:@Variable_9"
      }
    }
  }
  attr {
    key: "use_locking"
    value {
      b: true
    }
  }
  attr {
    key: "validate_shape"
    value {
      b: true
    }
  }
}
node {
  name: "Variable_9/read"
  op: "Identity"
  input: "Variable_9"
  attr {
    key: "T"
    value {
      type: DT_FLOAT
    }
  }
  attr {
    key: "_class"
    value {
      list {
        s: "loc:@Variable_9"
      }
    }
  }
}
node {
  name: "random_normal_6/shape"
  op: "Const"
  attr {
    key: "dtype"
    value {
      type: DT_INT32
    }
  }
  attr {
    key: "value"
    value {
      tensor {
        dtype: DT_INT32
        tensor_shape {
          dim {
            size: 1
          }
        }
        int_val: 64
      }
    }
  }
}
node {
  name: "random_normal_6/mean"
  op: "Const"
  attr {
    key: "dtype"
    value {
      type: DT_FLOAT
    }
  }
  attr {
    key: "value"
    value {
      tensor {
        dtype: DT_FLOAT
        tensor_shape {
        }
        float_val: 0.0
      }
    }
  }
}
node {
  name: "random_normal_6/stddev"
  op: "Const"
  attr {
    key: "dtype"
    value {
      type: DT_FLOAT
    }
  }
  attr {
    key: "value"
    value {
      tensor {
        dtype: DT_FLOAT
        tensor_shape {
        }
        float_val: 1.0
      }
    }
  }
}
node {
  name: "random_normal_6/RandomStandardNormal"
  op: "RandomStandardNormal"
  input: "random_normal_6/shape"
  attr {
    key: "T"
    value {
      type: DT_INT32
    }
  }
  attr {
    key: "dtype"
    value {
      type: DT_FLOAT
    }
  }
  attr {
    key: "seed"
    value {
      i: 0
    }
  }
  attr {
    key: "seed2"
    value {
      i: 0
    }
  }
}
node {
  name: "random_normal_6/mul"
  op: "Mul"
  input: "random_normal_6/RandomStandardNormal"
  input: "random_normal_6/stddev"
  attr {
    key: "T"
    value {
      type: DT_FLOAT
    }
  }
}
node {
  name: "random_normal_6"
  op: "Add"
  input: "random_normal_6/mul"
  input: "random_normal_6/mean"
  attr {
    key: "T"
    value {
      type: DT_FLOAT
    }
  }
}
node {
  name: "Variable_10"
  op: "VariableV2"
  attr {
    key: "container"
    value {
      s: ""
    }
  }
  attr {
    key: "dtype"
    value {
      type: DT_FLOAT
    }
  }
  attr {
    key: "shape"
    value {
      shape {
        dim {
          size: 64
        }
      }
    }
  }
  attr {
    key: "shared_name"
    value {
      s: ""
    }
  }
}
node {
  name: "Variable_10/Assign"
  op: "Assign"
  input: "Variable_10"
  input: "random_normal_6"
  attr {
    key: "T"
    value {
      type: DT_FLOAT
    }
  }
  attr {
    key: "_class"
    value {
      list {
        s: "loc:@Variable_10"
      }
    }
  }
  attr {
    key: "use_locking"
    value {
      b: true
    }
  }
  attr {
    key: "validate_shape"
    value {
      b: true
    }
  }
}
node {
  name: "Variable_10/read"
  op: "Identity"
  input: "Variable_10"
  attr {
    key: "T"
    value {
      type: DT_FLOAT
    }
  }
  attr {
    key: "_class"
    value {
      list {
        s: "loc:@Variable_10"
      }
    }
  }
}
node {
  name: "random_normal_7/shape"
  op: "Const"
  attr {
    key: "dtype"
    value {
      type: DT_INT32
    }
  }
  attr {
    key: "value"
    value {
      tensor {
        dtype: DT_INT32
        tensor_shape {
          dim {
            size: 1
          }
        }
        int_val: 32
      }
    }
  }
}
node {
  name: "random_normal_7/mean"
  op: "Const"
  attr {
    key: "dtype"
    value {
      type: DT_FLOAT
    }
  }
  attr {
    key: "value"
    value {
      tensor {
        dtype: DT_FLOAT
        tensor_shape {
        }
        float_val: 0.0
      }
    }
  }
}
node {
  name: "random_normal_7/stddev"
  op: "Const"
  attr {
    key: "dtype"
    value {
      type: DT_FLOAT
    }
  }
  attr {
    key: "value"
    value {
      tensor {
        dtype: DT_FLOAT
        tensor_shape {
        }
        float_val: 1.0
      }
    }
  }
}
node {
  name: "random_normal_7/RandomStandardNormal"
  op: "RandomStandardNormal"
  input: "random_normal_7/shape"
  attr {
    key: "T"
    value {
      type: DT_INT32
    }
  }
  attr {
    key: "dtype"
    value {
      type: DT_FLOAT
    }
  }
  attr {
    key: "seed"
    value {
      i: 0
    }
  }
  attr {
    key: "seed2"
    value {
      i: 0
    }
  }
}
node {
  name: "random_normal_7/mul"
  op: "Mul"
  input: "random_normal_7/RandomStandardNormal"
  input: "random_normal_7/stddev"
  attr {
    key: "T"
    value {
      type: DT_FLOAT
    }
  }
}
node {
  name: "random_normal_7"
  op: "Add"
  input: "random_normal_7/mul"
  input: "random_normal_7/mean"
  attr {
    key: "T"
    value {
      type: DT_FLOAT
    }
  }
}
node {
  name: "Variable_11"
  op: "VariableV2"
  attr {
    key: "container"
    value {
      s: ""
    }
  }
  attr {
    key: "dtype"
    value {
      type: DT_FLOAT
    }
  }
  attr {
    key: "shape"
    value {
      shape {
        dim {
          size: 32
        }
      }
    }
  }
  attr {
    key: "shared_name"
    value {
      s: ""
    }
  }
}
node {
  name: "Variable_11/Assign"
  op: "Assign"
  input: "Variable_11"
  input: "random_normal_7"
  attr {
    key: "T"
    value {
      type: DT_FLOAT
    }
  }
  attr {
    key: "_class"
    value {
      list {
        s: "loc:@Variable_11"
      }
    }
  }
  attr {
    key: "use_locking"
    value {
      b: true
    }
  }
  attr {
    key: "validate_shape"
    value {
      b: true
    }
  }
}
node {
  name: "Variable_11/read"
  op: "Identity"
  input: "Variable_11"
  attr {
    key: "T"
    value {
      type: DT_FLOAT
    }
  }
  attr {
    key: "_class"
    value {
      list {
        s: "loc:@Variable_11"
      }
    }
  }
}
node {
  name: "random_normal_8/shape"
  op: "Const"
  attr {
    key: "dtype"
    value {
      type: DT_INT32
    }
  }
  attr {
    key: "value"
    value {
      tensor {
        dtype: DT_INT32
        tensor_shape {
          dim {
            size: 1
          }
        }
        int_val: 16
      }
    }
  }
}
node {
  name: "random_normal_8/mean"
  op: "Const"
  attr {
    key: "dtype"
    value {
      type: DT_FLOAT
    }
  }
  attr {
    key: "value"
    value {
      tensor {
        dtype: DT_FLOAT
        tensor_shape {
        }
        float_val: 0.0
      }
    }
  }
}
node {
  name: "random_normal_8/stddev"
  op: "Const"
  attr {
    key: "dtype"
    value {
      type: DT_FLOAT
    }
  }
  attr {
    key: "value"
    value {
      tensor {
        dtype: DT_FLOAT
        tensor_shape {
        }
        float_val: 1.0
      }
    }
  }
}
node {
  name: "random_normal_8/RandomStandardNormal"
  op: "RandomStandardNormal"
  input: "random_normal_8/shape"
  attr {
    key: "T"
    value {
      type: DT_INT32
    }
  }
  attr {
    key: "dtype"
    value {
      type: DT_FLOAT
    }
  }
  attr {
    key: "seed"
    value {
      i: 0
    }
  }
  attr {
    key: "seed2"
    value {
      i: 0
    }
  }
}
node {
  name: "random_normal_8/mul"
  op: "Mul"
  input: "random_normal_8/RandomStandardNormal"
  input: "random_normal_8/stddev"
  attr {
    key: "T"
    value {
      type: DT_FLOAT
    }
  }
}
node {
  name: "random_normal_8"
  op: "Add"
  input: "random_normal_8/mul"
  input: "random_normal_8/mean"
  attr {
    key: "T"
    value {
      type: DT_FLOAT
    }
  }
}
node {
  name: "Variable_12"
  op: "VariableV2"
  attr {
    key: "container"
    value {
      s: ""
    }
  }
  attr {
    key: "dtype"
    value {
      type: DT_FLOAT
    }
  }
  attr {
    key: "shape"
    value {
      shape {
        dim {
          size: 16
        }
      }
    }
  }
  attr {
    key: "shared_name"
    value {
      s: ""
    }
  }
}
node {
  name: "Variable_12/Assign"
  op: "Assign"
  input: "Variable_12"
  input: "random_normal_8"
  attr {
    key: "T"
    value {
      type: DT_FLOAT
    }
  }
  attr {
    key: "_class"
    value {
      list {
        s: "loc:@Variable_12"
      }
    }
  }
  attr {
    key: "use_locking"
    value {
      b: true
    }
  }
  attr {
    key: "validate_shape"
    value {
      b: true
    }
  }
}
node {
  name: "Variable_12/read"
  op: "Identity"
  input: "Variable_12"
  attr {
    key: "T"
    value {
      type: DT_FLOAT
    }
  }
  attr {
    key: "_class"
    value {
      list {
        s: "loc:@Variable_12"
      }
    }
  }
}
node {
  name: "random_normal_9/shape"
  op: "Const"
  attr {
    key: "dtype"
    value {
      type: DT_INT32
    }
  }
  attr {
    key: "value"
    value {
      tensor {
        dtype: DT_INT32
        tensor_shape {
          dim {
            size: 1
          }
        }
        int_val: 8
      }
    }
  }
}
node {
  name: "random_normal_9/mean"
  op: "Const"
  attr {
    key: "dtype"
    value {
      type: DT_FLOAT
    }
  }
  attr {
    key: "value"
    value {
      tensor {
        dtype: DT_FLOAT
        tensor_shape {
        }
        float_val: 0.0
      }
    }
  }
}
node {
  name: "random_normal_9/stddev"
  op: "Const"
  attr {
    key: "dtype"
    value {
      type: DT_FLOAT
    }
  }
  attr {
    key: "value"
    value {
      tensor {
        dtype: DT_FLOAT
        tensor_shape {
        }
        float_val: 1.0
      }
    }
  }
}
node {
  name: "random_normal_9/RandomStandardNormal"
  op: "RandomStandardNormal"
  input: "random_normal_9/shape"
  attr {
    key: "T"
    value {
      type: DT_INT32
    }
  }
  attr {
    key: "dtype"
    value {
      type: DT_FLOAT
    }
  }
  attr {
    key: "seed"
    value {
      i: 0
    }
  }
  attr {
    key: "seed2"
    value {
      i: 0
    }
  }
}
node {
  name: "random_normal_9/mul"
  op: "Mul"
  input: "random_normal_9/RandomStandardNormal"
  input: "random_normal_9/stddev"
  attr {
    key: "T"
    value {
      type: DT_FLOAT
    }
  }
}
node {
  name: "random_normal_9"
  op: "Add"
  input: "random_normal_9/mul"
  input: "random_normal_9/mean"
  attr {
    key: "T"
    value {
      type: DT_FLOAT
    }
  }
}
node {
  name: "Variable_13"
  op: "VariableV2"
  attr {
    key: "container"
    value {
      s: ""
    }
  }
  attr {
    key: "dtype"
    value {
      type: DT_FLOAT
    }
  }
  attr {
    key: "shape"
    value {
      shape {
        dim {
          size: 8
        }
      }
    }
  }
  attr {
    key: "shared_name"
    value {
      s: ""
    }
  }
}
node {
  name: "Variable_13/Assign"
  op: "Assign"
  input: "Variable_13"
  input: "random_normal_9"
  attr {
    key: "T"
    value {
      type: DT_FLOAT
    }
  }
  attr {
    key: "_class"
    value {
      list {
        s: "loc:@Variable_13"
      }
    }
  }
  attr {
    key: "use_locking"
    value {
      b: true
    }
  }
  attr {
    key: "validate_shape"
    value {
      b: true
    }
  }
}
node {
  name: "Variable_13/read"
  op: "Identity"
  input: "Variable_13"
  attr {
    key: "T"
    value {
      type: DT_FLOAT
    }
  }
  attr {
    key: "_class"
    value {
      list {
        s: "loc:@Variable_13"
      }
    }
  }
}
node {
  name: "input_tensor"
  op: "Identity"
  input: "Placeholder_2"
  attr {
    key: "T"
    value {
      type: DT_FLOAT
    }
  }
}
node {
  name: "MatMul"
  op: "MatMul"
  input: "input_tensor"
  input: "Variable_4/read"
  attr {
    key: "T"
    value {
      type: DT_FLOAT
    }
  }
  attr {
    key: "transpose_a"
    value {
      b: false
    }
  }
  attr {
    key: "transpose_b"
    value {
      b: false
    }
  }
}
node {
  name: "Add"
  op: "Add"
  input: "MatMul"
  input: "Variable_9/read"
  attr {
    key: "T"
    value {
      type: DT_FLOAT
    }
  }
}
node {
  name: "Sigmoid"
  op: "Sigmoid"
  input: "Add"
  attr {
    key: "T"
    value {
      type: DT_FLOAT
    }
  }
}
node {
  name: "MatMul_1"
  op: "MatMul"
  input: "Sigmoid"
  input: "Variable_5/read"
  attr {
    key: "T"
    value {
      type: DT_FLOAT
    }
  }
  attr {
    key: "transpose_a"
    value {
      b: false
    }
  }
  attr {
    key: "transpose_b"
    value {
      b: false
    }
  }
}
node {
  name: "Add_1"
  op: "Add"
  input: "MatMul_1"
  input: "Variable_10/read"
  attr {
    key: "T"
    value {
      type: DT_FLOAT
    }
  }
}
node {
  name: "Sigmoid_1"
  op: "Sigmoid"
  input: "Add_1"
  attr {
    key: "T"
    value {
      type: DT_FLOAT
    }
  }
}
node {
  name: "MatMul_2"
  op: "MatMul"
  input: "Sigmoid_1"
  input: "Variable_6/read"
  attr {
    key: "T"
    value {
      type: DT_FLOAT
    }
  }
  attr {
    key: "transpose_a"
    value {
      b: false
    }
  }
  attr {
    key: "transpose_b"
    value {
      b: false
    }
  }
}
node {
  name: "Add_2"
  op: "Add"
  input: "MatMul_2"
  input: "Variable_11/read"
  attr {
    key: "T"
    value {
      type: DT_FLOAT
    }
  }
}
node {
  name: "Sigmoid_2"
  op: "Sigmoid"
  input: "Add_2"
  attr {
    key: "T"
    value {
      type: DT_FLOAT
    }
  }
}
node {
  name: "MatMul_3"
  op: "MatMul"
  input: "Sigmoid_2"
  input: "Variable_7/read"
  attr {
    key: "T"
    value {
      type: DT_FLOAT
    }
  }
  attr {
    key: "transpose_a"
    value {
      b: false
    }
  }
  attr {
    key: "transpose_b"
    value {
      b: false
    }
  }
}
node {
  name: "Add_3"
  op: "Add"
  input: "MatMul_3"
  input: "Variable_12/read"
  attr {
    key: "T"
    value {
      type: DT_FLOAT
    }
  }
}
node {
  name: "Sigmoid_3"
  op: "Sigmoid"
  input: "Add_3"
  attr {
    key: "T"
    value {
      type: DT_FLOAT
    }
  }
}
node {
  name: "MatMul_4"
  op: "MatMul"
  input: "Sigmoid_3"
  input: "Variable_8/read"
  attr {
    key: "T"
    value {
      type: DT_FLOAT
    }
  }
  attr {
    key: "transpose_a"
    value {
      b: false
    }
  }
  attr {
    key: "transpose_b"
    value {
      b: false
    }
  }
}
node {
  name: "Add_4"
  op: "Add"
  input: "MatMul_4"
  input: "Variable_13/read"
  attr {
    key: "T"
    value {
      type: DT_FLOAT
    }
  }
}
node {
  name: "softmax_cross_entropy_with_logits_sg/labels_stop_gradient"
  op: "StopGradient"
  input: "Placeholder_3"
  attr {
    key: "T"
    value {
      type: DT_FLOAT
    }
  }
}
node {
  name: "softmax_cross_entropy_with_logits_sg/Rank"
  op: "Const"
  attr {
    key: "dtype"
    value {
      type: DT_INT32
    }
  }
  attr {
    key: "value"
    value {
      tensor {
        dtype: DT_INT32
        tensor_shape {
        }
        int_val: 2
      }
    }
  }
}
node {
  name: "softmax_cross_entropy_with_logits_sg/Shape"
  op: "Shape"
  input: "Add_4"
  attr {
    key: "T"
    value {
      type: DT_FLOAT
    }
  }
  attr {
    key: "out_type"
    value {
      type: DT_INT32
    }
  }
}
node {
  name: "softmax_cross_entropy_with_logits_sg/Rank_1"
  op: "Const"
  attr {
    key: "dtype"
    value {
      type: DT_INT32
    }
  }
  attr {
    key: "value"
    value {
      tensor {
        dtype: DT_INT32
        tensor_shape {
        }
        int_val: 2
      }
    }
  }
}
node {
  name: "softmax_cross_entropy_with_logits_sg/Shape_1"
  op: "Shape"
  input: "Add_4"
  attr {
    key: "T"
    value {
      type: DT_FLOAT
    }
  }
  attr {
    key: "out_type"
    value {
      type: DT_INT32
    }
  }
}
node {
  name: "softmax_cross_entropy_with_logits_sg/Sub/y"
  op: "Const"
  attr {
    key: "dtype"
    value {
      type: DT_INT32
    }
  }
  attr {
    key: "value"
    value {
      tensor {
        dtype: DT_INT32
        tensor_shape {
        }
        int_val: 1
      }
    }
  }
}
node {
  name: "softmax_cross_entropy_with_logits_sg/Sub"
  op: "Sub"
  input: "softmax_cross_entropy_with_logits_sg/Rank_1"
  input: "softmax_cross_entropy_with_logits_sg/Sub/y"
  attr {
    key: "T"
    value {
      type: DT_INT32
    }
  }
}
node {
  name: "softmax_cross_entropy_with_logits_sg/Slice/begin"
  op: "Pack"
  input: "softmax_cross_entropy_with_logits_sg/Sub"
  attr {
    key: "N"
    value {
      i: 1
    }
  }
  attr {
    key: "T"
    value {
      type: DT_INT32
    }
  }
  attr {
    key: "axis"
    value {
      i: 0
    }
  }
}
node {
  name: "softmax_cross_entropy_with_logits_sg/Slice/size"
  op: "Const"
  attr {
    key: "dtype"
    value {
      type: DT_INT32
    }
  }
  attr {
    key: "value"
    value {
      tensor {
        dtype: DT_INT32
        tensor_shape {
          dim {
            size: 1
          }
        }
        int_val: 1
      }
    }
  }
}
node {
  name: "softmax_cross_entropy_with_logits_sg/Slice"
  op: "Slice"
  input: "softmax_cross_entropy_with_logits_sg/Shape_1"
  input: "softmax_cross_entropy_with_logits_sg/Slice/begin"
  input: "softmax_cross_entropy_with_logits_sg/Slice/size"
  attr {
    key: "Index"
    value {
      type: DT_INT32
    }
  }
  attr {
    key: "T"
    value {
      type: DT_INT32
    }
  }
}
node {
  name: "softmax_cross_entropy_with_logits_sg/concat/values_0"
  op: "Const"
  attr {
    key: "dtype"
    value {
      type: DT_INT32
    }
  }
  attr {
    key: "value"
    value {
      tensor {
        dtype: DT_INT32
        tensor_shape {
          dim {
            size: 1
          }
        }
        int_val: -1
      }
    }
  }
}
node {
  name: "softmax_cross_entropy_with_logits_sg/concat/axis"
  op: "Const"
  attr {
    key: "dtype"
    value {
      type: DT_INT32
    }
  }
  attr {
    key: "value"
    value {
      tensor {
        dtype: DT_INT32
        tensor_shape {
        }
        int_val: 0
      }
    }
  }
}
node {
  name: "softmax_cross_entropy_with_logits_sg/concat"
  op: "ConcatV2"
  input: "softmax_cross_entropy_with_logits_sg/concat/values_0"
  input: "softmax_cross_entropy_with_logits_sg/Slice"
  input: "softmax_cross_entropy_with_logits_sg/concat/axis"
  attr {
    key: "N"
    value {
      i: 2
    }
  }
  attr {
    key: "T"
    value {
      type: DT_INT32
    }
  }
  attr {
    key: "Tidx"
    value {
      type: DT_INT32
    }
  }
}
node {
  name: "softmax_cross_entropy_with_logits_sg/Reshape"
  op: "Reshape"
  input: "Add_4"
  input: "softmax_cross_entropy_with_logits_sg/concat"
  attr {
    key: "T"
    value {
      type: DT_FLOAT
    }
  }
  attr {
    key: "Tshape"
    value {
      type: DT_INT32
    }
  }
}
node {
  name: "softmax_cross_entropy_with_logits_sg/Rank_2"
  op: "Const"
  attr {
    key: "dtype"
    value {
      type: DT_INT32
    }
  }
  attr {
    key: "value"
    value {
      tensor {
        dtype: DT_INT32
        tensor_shape {
        }
        int_val: 2
      }
    }
  }
}
node {
  name: "softmax_cross_entropy_with_logits_sg/Shape_2"
  op: "Shape"
  input: "softmax_cross_entropy_with_logits_sg/labels_stop_gradient"
  attr {
    key: "T"
    value {
      type: DT_FLOAT
    }
  }
  attr {
    key: "out_type"
    value {
      type: DT_INT32
    }
  }
}
node {
  name: "softmax_cross_entropy_with_logits_sg/Sub_1/y"
  op: "Const"
  attr {
    key: "dtype"
    value {
      type: DT_INT32
    }
  }
  attr {
    key: "value"
    value {
      tensor {
        dtype: DT_INT32
        tensor_shape {
        }
        int_val: 1
      }
    }
  }
}
node {
  name: "softmax_cross_entropy_with_logits_sg/Sub_1"
  op: "Sub"
  input: "softmax_cross_entropy_with_logits_sg/Rank_2"
  input: "softmax_cross_entropy_with_logits_sg/Sub_1/y"
  attr {
    key: "T"
    value {
      type: DT_INT32
    }
  }
}
node {
  name: "softmax_cross_entropy_with_logits_sg/Slice_1/begin"
  op: "Pack"
  input: "softmax_cross_entropy_with_logits_sg/Sub_1"
  attr {
    key: "N"
    value {
      i: 1
    }
  }
  attr {
    key: "T"
    value {
      type: DT_INT32
    }
  }
  attr {
    key: "axis"
    value {
      i: 0
    }
  }
}
node {
  name: "softmax_cross_entropy_with_logits_sg/Slice_1/size"
  op: "Const"
  attr {
    key: "dtype"
    value {
      type: DT_INT32
    }
  }
  attr {
    key: "value"
    value {
      tensor {
        dtype: DT_INT32
        tensor_shape {
          dim {
            size: 1
          }
        }
        int_val: 1
      }
    }
  }
}
node {
  name: "softmax_cross_entropy_with_logits_sg/Slice_1"
  op: "Slice"
  input: "softmax_cross_entropy_with_logits_sg/Shape_2"
  input: "softmax_cross_entropy_with_logits_sg/Slice_1/begin"
  input: "softmax_cross_entropy_with_logits_sg/Slice_1/size"
  attr {
    key: "Index"
    value {
      type: DT_INT32
    }
  }
  attr {
    key: "T"
    value {
      type: DT_INT32
    }
  }
}
node {
  name: "softmax_cross_entropy_with_logits_sg/concat_1/values_0"
  op: "Const"
  attr {
    key: "dtype"
    value {
      type: DT_INT32
    }
  }
  attr {
    key: "value"
    value {
      tensor {
        dtype: DT_INT32
        tensor_shape {
          dim {
            size: 1
          }
        }
        int_val: -1
      }
    }
  }
}
node {
  name: "softmax_cross_entropy_with_logits_sg/concat_1/axis"
  op: "Const"
  attr {
    key: "dtype"
    value {
      type: DT_INT32
    }
  }
  attr {
    key: "value"
    value {
      tensor {
        dtype: DT_INT32
        tensor_shape {
        }
        int_val: 0
      }
    }
  }
}
node {
  name: "softmax_cross_entropy_with_logits_sg/concat_1"
  op: "ConcatV2"
  input: "softmax_cross_entropy_with_logits_sg/concat_1/values_0"
  input: "softmax_cross_entropy_with_logits_sg/Slice_1"
  input: "softmax_cross_entropy_with_logits_sg/concat_1/axis"
  attr {
    key: "N"
    value {
      i: 2
    }
  }
  attr {
    key: "T"
    value {
      type: DT_INT32
    }
  }
  attr {
    key: "Tidx"
    value {
      type: DT_INT32
    }
  }
}
node {
  name: "softmax_cross_entropy_with_logits_sg/Reshape_1"
  op: "Reshape"
  input: "softmax_cross_entropy_with_logits_sg/labels_stop_gradient"
  input: "softmax_cross_entropy_with_logits_sg/concat_1"
  attr {
    key: "T"
    value {
      type: DT_FLOAT
    }
  }
  attr {
    key: "Tshape"
    value {
      type: DT_INT32
    }
  }
}
node {
  name: "softmax_cross_entropy_with_logits_sg"
  op: "SoftmaxCrossEntropyWithLogits"
  input: "softmax_cross_entropy_with_logits_sg/Reshape"
  input: "softmax_cross_entropy_with_logits_sg/Reshape_1"
  attr {
    key: "T"
    value {
      type: DT_FLOAT
    }
  }
}
node {
  name: "softmax_cross_entropy_with_logits_sg/Sub_2/y"
  op: "Const"
  attr {
    key: "dtype"
    value {
      type: DT_INT32
    }
  }
  attr {
    key: "value"
    value {
      tensor {
        dtype: DT_INT32
        tensor_shape {
        }
        int_val: 1
      }
    }
  }
}
node {
  name: "softmax_cross_entropy_with_logits_sg/Sub_2"
  op: "Sub"
  input: "softmax_cross_entropy_with_logits_sg/Rank"
  input: "softmax_cross_entropy_with_logits_sg/Sub_2/y"
  attr {
    key: "T"
    value {
      type: DT_INT32
    }
  }
}
node {
  name: "softmax_cross_entropy_with_logits_sg/Slice_2/begin"
  op: "Const"
  attr {
    key: "dtype"
    value {
      type: DT_INT32
    }
  }
  attr {
    key: "value"
    value {
      tensor {
        dtype: DT_INT32
        tensor_shape {
          dim {
            size: 1
          }
        }
        int_val: 0
      }
    }
  }
}
node {
  name: "softmax_cross_entropy_with_logits_sg/Slice_2/size"
  op: "Pack"
  input: "softmax_cross_entropy_with_logits_sg/Sub_2"
  attr {
    key: "N"
    value {
      i: 1
    }
  }
  attr {
    key: "T"
    value {
      type: DT_INT32
    }
  }
  attr {
    key: "axis"
    value {
      i: 0
    }
  }
}
node {
  name: "softmax_cross_entropy_with_logits_sg/Slice_2"
  op: "Slice"
  input: "softmax_cross_entropy_with_logits_sg/Shape"
  input: "softmax_cross_entropy_with_logits_sg/Slice_2/begin"
  input: "softmax_cross_entropy_with_logits_sg/Slice_2/size"
  attr {
    key: "Index"
    value {
      type: DT_INT32
    }
  }
  attr {
    key: "T"
    value {
      type: DT_INT32
    }
  }
}
node {
  name: "softmax_cross_entropy_with_logits_sg/Reshape_2"
  op: "Reshape"
  input: "softmax_cross_entropy_with_logits_sg"
  input: "softmax_cross_entropy_with_logits_sg/Slice_2"
  attr {
    key: "T"
    value {
      type: DT_FLOAT
    }
  }
  attr {
    key: "Tshape"
    value {
      type: DT_INT32
    }
  }
}
node {
  name: "Const"
  op: "Const"
  attr {
    key: "dtype"
    value {
      type: DT_INT32
    }
  }
  attr {
    key: "value"
    value {
      tensor {
        dtype: DT_INT32
        tensor_shape {
          dim {
            size: 1
          }
        }
        int_val: 0
      }
    }
  }
}
node {
  name: "Mean"
  op: "Mean"
  input: "softmax_cross_entropy_with_logits_sg/Reshape_2"
  input: "Const"
  attr {
    key: "T"
    value {
      type: DT_FLOAT
    }
  }
  attr {
    key: "Tidx"
    value {
      type: DT_INT32
    }
  }
  attr {
    key: "keep_dims"
    value {
      b: false
    }
  }
}
node {
  name: "gradients/Shape"
  op: "Const"
  attr {
    key: "dtype"
    value {
      type: DT_INT32
    }
  }
  attr {
    key: "value"
    value {
      tensor {
        dtype: DT_INT32
        tensor_shape {
          dim {
          }
        }
      }
    }
  }
}
node {
  name: "gradients/grad_ys_0"
  op: "Const"
  attr {
    key: "dtype"
    value {
      type: DT_FLOAT
    }
  }
  attr {
    key: "value"
    value {
      tensor {
        dtype: DT_FLOAT
        tensor_shape {
        }
        float_val: 1.0
      }
    }
  }
}
node {
  name: "gradients/Fill"
  op: "Fill"
  input: "gradients/Shape"
  input: "gradients/grad_ys_0"
  attr {
    key: "T"
    value {
      type: DT_FLOAT
    }
  }
  attr {
    key: "index_type"
    value {
      type: DT_INT32
    }
  }
}
node {
  name: "gradients/Mean_grad/Reshape/shape"
  op: "Const"
  attr {
    key: "dtype"
    value {
      type: DT_INT32
    }
  }
  attr {
    key: "value"
    value {
      tensor {
        dtype: DT_INT32
        tensor_shape {
          dim {
            size: 1
          }
        }
        int_val: 1
      }
    }
  }
}
node {
  name: "gradients/Mean_grad/Reshape"
  op: "Reshape"
  input: "gradients/Fill"
  input: "gradients/Mean_grad/Reshape/shape"
  attr {
    key: "T"
    value {
      type: DT_FLOAT
    }
  }
  attr {
    key: "Tshape"
    value {
      type: DT_INT32
    }
  }
}
node {
  name: "gradients/Mean_grad/Shape"
  op: "Shape"
  input: "softmax_cross_entropy_with_logits_sg/Reshape_2"
  attr {
    key: "T"
    value {
      type: DT_FLOAT
    }
  }
  attr {
    key: "out_type"
    value {
      type: DT_INT32
    }
  }
}
node {
  name: "gradients/Mean_grad/Tile"
  op: "Tile"
  input: "gradients/Mean_grad/Reshape"
  input: "gradients/Mean_grad/Shape"
  attr {
    key: "T"
    value {
      type: DT_FLOAT
    }
  }
  attr {
    key: "Tmultiples"
    value {
      type: DT_INT32
    }
  }
}
node {
  name: "gradients/Mean_grad/Shape_1"
  op: "Shape"
  input: "softmax_cross_entropy_with_logits_sg/Reshape_2"
  attr {
    key: "T"
    value {
      type: DT_FLOAT
    }
  }
  attr {
    key: "out_type"
    value {
      type: DT_INT32
    }
  }
}
node {
  name: "gradients/Mean_grad/Shape_2"
  op: "Const"
  attr {
    key: "dtype"
    value {
      type: DT_INT32
    }
  }
  attr {
    key: "value"
    value {
      tensor {
        dtype: DT_INT32
        tensor_shape {
          dim {
          }
        }
      }
    }
  }
}
node {
  name: "gradients/Mean_grad/Const"
  op: "Const"
  attr {
    key: "dtype"
    value {
      type: DT_INT32
    }
  }
  attr {
    key: "value"
    value {
      tensor {
        dtype: DT_INT32
        tensor_shape {
          dim {
            size: 1
          }
        }
        int_val: 0
      }
    }
  }
}
node {
  name: "gradients/Mean_grad/Prod"
  op: "Prod"
  input: "gradients/Mean_grad/Shape_1"
  input: "gradients/Mean_grad/Const"
  attr {
    key: "T"
    value {
      type: DT_INT32
    }
  }
  attr {
    key: "Tidx"
    value {
      type: DT_INT32
    }
  }
  attr {
    key: "keep_dims"
    value {
      b: false
    }
  }
}
node {
  name: "gradients/Mean_grad/Const_1"
  op: "Const"
  attr {
    key: "dtype"
    value {
      type: DT_INT32
    }
  }
  attr {
    key: "value"
    value {
      tensor {
        dtype: DT_INT32
        tensor_shape {
          dim {
            size: 1
          }
        }
        int_val: 0
      }
    }
  }
}
node {
  name: "gradients/Mean_grad/Prod_1"
  op: "Prod"
  input: "gradients/Mean_grad/Shape_2"
  input: "gradients/Mean_grad/Const_1"
  attr {
    key: "T"
    value {
      type: DT_INT32
    }
  }
  attr {
    key: "Tidx"
    value {
      type: DT_INT32
    }
  }
  attr {
    key: "keep_dims"
    value {
      b: false
    }
  }
}
node {
  name: "gradients/Mean_grad/Maximum/y"
  op: "Const"
  attr {
    key: "dtype"
    value {
      type: DT_INT32
    }
  }
  attr {
    key: "value"
    value {
      tensor {
        dtype: DT_INT32
        tensor_shape {
        }
        int_val: 1
      }
    }
  }
}
node {
  name: "gradients/Mean_grad/Maximum"
  op: "Maximum"
  input: "gradients/Mean_grad/Prod_1"
  input: "gradients/Mean_grad/Maximum/y"
  attr {
    key: "T"
    value {
      type: DT_INT32
    }
  }
}
node {
  name: "gradients/Mean_grad/floordiv"
  op: "FloorDiv"
  input: "gradients/Mean_grad/Prod"
  input: "gradients/Mean_grad/Maximum"
  attr {
    key: "T"
    value {
      type: DT_INT32
    }
  }
}
node {
  name: "gradients/Mean_grad/Cast"
  op: "Cast"
  input: "gradients/Mean_grad/floordiv"
  attr {
    key: "DstT"
    value {
      type: DT_FLOAT
    }
  }
  attr {
    key: "SrcT"
    value {
      type: DT_INT32
    }
  }
}
node {
  name: "gradients/Mean_grad/truediv"
  op: "RealDiv"
  input: "gradients/Mean_grad/Tile"
  input: "gradients/Mean_grad/Cast"
  attr {
    key: "T"
    value {
      type: DT_FLOAT
    }
  }
}
node {
  name: "gradients/softmax_cross_entropy_with_logits_sg/Reshape_2_grad/Shape"
  op: "Shape"
  input: "softmax_cross_entropy_with_logits_sg"
  attr {
    key: "T"
    value {
      type: DT_FLOAT
    }
  }
  attr {
    key: "out_type"
    value {
      type: DT_INT32
    }
  }
}
node {
  name: "gradients/softmax_cross_entropy_with_logits_sg/Reshape_2_grad/Reshape"
  op: "Reshape"
  input: "gradients/Mean_grad/truediv"
  input: "gradients/softmax_cross_entropy_with_logits_sg/Reshape_2_grad/Shape"
  attr {
    key: "T"
    value {
      type: DT_FLOAT
    }
  }
  attr {
    key: "Tshape"
    value {
      type: DT_INT32
    }
  }
}
node {
  name: "gradients/zeros_like"
  op: "ZerosLike"
  input: "softmax_cross_entropy_with_logits_sg:1"
  attr {
    key: "T"
    value {
      type: DT_FLOAT
    }
  }
}
node {
  name: "gradients/softmax_cross_entropy_with_logits_sg_grad/ExpandDims/dim"
  op: "Const"
  attr {
    key: "dtype"
    value {
      type: DT_INT32
    }
  }
  attr {
    key: "value"
    value {
      tensor {
        dtype: DT_INT32
        tensor_shape {
        }
        int_val: -1
      }
    }
  }
}
node {
  name: "gradients/softmax_cross_entropy_with_logits_sg_grad/ExpandDims"
  op: "ExpandDims"
  input: "gradients/softmax_cross_entropy_with_logits_sg/Reshape_2_grad/Reshape"
  input: "gradients/softmax_cross_entropy_with_logits_sg_grad/ExpandDims/dim"
  attr {
    key: "T"
    value {
      type: DT_FLOAT
    }
  }
  attr {
    key: "Tdim"
    value {
      type: DT_INT32
    }
  }
}
node {
  name: "gradients/softmax_cross_entropy_with_logits_sg_grad/mul"
  op: "Mul"
  input: "gradients/softmax_cross_entropy_with_logits_sg_grad/ExpandDims"
  input: "softmax_cross_entropy_with_logits_sg:1"
  attr {
    key: "T"
    value {
      type: DT_FLOAT
    }
  }
}
node {
  name: "gradients/softmax_cross_entropy_with_logits_sg_grad/LogSoftmax"
  op: "LogSoftmax"
  input: "softmax_cross_entropy_with_logits_sg/Reshape"
  attr {
    key: "T"
    value {
      type: DT_FLOAT
    }
  }
}
node {
  name: "gradients/softmax_cross_entropy_with_logits_sg_grad/Neg"
  op: "Neg"
  input: "gradients/softmax_cross_entropy_with_logits_sg_grad/LogSoftmax"
  attr {
    key: "T"
    value {
      type: DT_FLOAT
    }
  }
}
node {
  name: "gradients/softmax_cross_entropy_with_logits_sg_grad/ExpandDims_1/dim"
  op: "Const"
  attr {
    key: "dtype"
    value {
      type: DT_INT32
    }
  }
  attr {
    key: "value"
    value {
      tensor {
        dtype: DT_INT32
        tensor_shape {
        }
        int_val: -1
      }
    }
  }
}
node {
  name: "gradients/softmax_cross_entropy_with_logits_sg_grad/ExpandDims_1"
  op: "ExpandDims"
  input: "gradients/softmax_cross_entropy_with_logits_sg/Reshape_2_grad/Reshape"
  input: "gradients/softmax_cross_entropy_with_logits_sg_grad/ExpandDims_1/dim"
  attr {
    key: "T"
    value {
      type: DT_FLOAT
    }
  }
  attr {
    key: "Tdim"
    value {
      type: DT_INT32
    }
  }
}
node {
  name: "gradients/softmax_cross_entropy_with_logits_sg_grad/mul_1"
  op: "Mul"
  input: "gradients/softmax_cross_entropy_with_logits_sg_grad/ExpandDims_1"
  input: "gradients/softmax_cross_entropy_with_logits_sg_grad/Neg"
  attr {
    key: "T"
    value {
      type: DT_FLOAT
    }
  }
}
node {
  name: "gradients/softmax_cross_entropy_with_logits_sg_grad/tuple/group_deps"
  op: "NoOp"
  input: "^gradients/softmax_cross_entropy_with_logits_sg_grad/mul"
  input: "^gradients/softmax_cross_entropy_with_logits_sg_grad/mul_1"
}
node {
  name: "gradients/softmax_cross_entropy_with_logits_sg_grad/tuple/control_dependency"
  op: "Identity"
  input: "gradients/softmax_cross_entropy_with_logits_sg_grad/mul"
  input: "^gradients/softmax_cross_entropy_with_logits_sg_grad/tuple/group_deps"
  attr {
    key: "T"
    value {
      type: DT_FLOAT
    }
  }
  attr {
    key: "_class"
    value {
      list {
        s: "loc:@gradients/softmax_cross_entropy_with_logits_sg_grad/mul"
      }
    }
  }
}
node {
  name: "gradients/softmax_cross_entropy_with_logits_sg_grad/tuple/control_dependency_1"
  op: "Identity"
  input: "gradients/softmax_cross_entropy_with_logits_sg_grad/mul_1"
  input: "^gradients/softmax_cross_entropy_with_logits_sg_grad/tuple/group_deps"
  attr {
    key: "T"
    value {
      type: DT_FLOAT
    }
  }
  attr {
    key: "_class"
    value {
      list {
        s: "loc:@gradients/softmax_cross_entropy_with_logits_sg_grad/mul_1"
      }
    }
  }
}
node {
  name: "gradients/softmax_cross_entropy_with_logits_sg/Reshape_grad/Shape"
  op: "Shape"
  input: "Add_4"
  attr {
    key: "T"
    value {
      type: DT_FLOAT
    }
  }
  attr {
    key: "out_type"
    value {
      type: DT_INT32
    }
  }
}
node {
  name: "gradients/softmax_cross_entropy_with_logits_sg/Reshape_grad/Reshape"
  op: "Reshape"
  input: "gradients/softmax_cross_entropy_with_logits_sg_grad/tuple/control_dependency"
  input: "gradients/softmax_cross_entropy_with_logits_sg/Reshape_grad/Shape"
  attr {
    key: "T"
    value {
      type: DT_FLOAT
    }
  }
  attr {
    key: "Tshape"
    value {
      type: DT_INT32
    }
  }
}
node {
  name: "gradients/Add_4_grad/Shape"
  op: "Shape"
  input: "MatMul_4"
  attr {
    key: "T"
    value {
      type: DT_FLOAT
    }
  }
  attr {
    key: "out_type"
    value {
      type: DT_INT32
    }
  }
}
node {
  name: "gradients/Add_4_grad/Shape_1"
  op: "Const"
  attr {
    key: "dtype"
    value {
      type: DT_INT32
    }
  }
  attr {
    key: "value"
    value {
      tensor {
        dtype: DT_INT32
        tensor_shape {
          dim {
            size: 1
          }
        }
        int_val: 8
      }
    }
  }
}
node {
  name: "gradients/Add_4_grad/BroadcastGradientArgs"
  op: "BroadcastGradientArgs"
  input: "gradients/Add_4_grad/Shape"
  input: "gradients/Add_4_grad/Shape_1"
  attr {
    key: "T"
    value {
      type: DT_INT32
    }
  }
}
node {
  name: "gradients/Add_4_grad/Sum"
  op: "Sum"
  input: "gradients/softmax_cross_entropy_with_logits_sg/Reshape_grad/Reshape"
  input: "gradients/Add_4_grad/BroadcastGradientArgs"
  attr {
    key: "T"
    value {
      type: DT_FLOAT
    }
  }
  attr {
    key: "Tidx"
    value {
      type: DT_INT32
    }
  }
  attr {
    key: "keep_dims"
    value {
      b: false
    }
  }
}
node {
  name: "gradients/Add_4_grad/Reshape"
  op: "Reshape"
  input: "gradients/Add_4_grad/Sum"
  input: "gradients/Add_4_grad/Shape"
  attr {
    key: "T"
    value {
      type: DT_FLOAT
    }
  }
  attr {
    key: "Tshape"
    value {
      type: DT_INT32
    }
  }
}
node {
  name: "gradients/Add_4_grad/Sum_1"
  op: "Sum"
  input: "gradients/softmax_cross_entropy_with_logits_sg/Reshape_grad/Reshape"
  input: "gradients/Add_4_grad/BroadcastGradientArgs:1"
  attr {
    key: "T"
    value {
      type: DT_FLOAT
    }
  }
  attr {
    key: "Tidx"
    value {
      type: DT_INT32
    }
  }
  attr {
    key: "keep_dims"
    value {
      b: false
    }
  }
}
node {
  name: "gradients/Add_4_grad/Reshape_1"
  op: "Reshape"
  input: "gradients/Add_4_grad/Sum_1"
  input: "gradients/Add_4_grad/Shape_1"
  attr {
    key: "T"
    value {
      type: DT_FLOAT
    }
  }
  attr {
    key: "Tshape"
    value {
      type: DT_INT32
    }
  }
}
node {
  name: "gradients/Add_4_grad/tuple/group_deps"
  op: "NoOp"
  input: "^gradients/Add_4_grad/Reshape"
  input: "^gradients/Add_4_grad/Reshape_1"
}
node {
  name: "gradients/Add_4_grad/tuple/control_dependency"
  op: "Identity"
  input: "gradients/Add_4_grad/Reshape"
  input: "^gradients/Add_4_grad/tuple/group_deps"
  attr {
    key: "T"
    value {
      type: DT_FLOAT
    }
  }
  attr {
    key: "_class"
    value {
      list {
        s: "loc:@gradients/Add_4_grad/Reshape"
      }
    }
  }
}
node {
  name: "gradients/Add_4_grad/tuple/control_dependency_1"
  op: "Identity"
  input: "gradients/Add_4_grad/Reshape_1"
  input: "^gradients/Add_4_grad/tuple/group_deps"
  attr {
    key: "T"
    value {
      type: DT_FLOAT
    }
  }
  attr {
    key: "_class"
    value {
      list {
        s: "loc:@gradients/Add_4_grad/Reshape_1"
      }
    }
  }
}
node {
  name: "gradients/MatMul_4_grad/MatMul"
  op: "MatMul"
  input: "gradients/Add_4_grad/tuple/control_dependency"
  input: "Variable_8/read"
  attr {
    key: "T"
    value {
      type: DT_FLOAT
    }
  }
  attr {
    key: "transpose_a"
    value {
      b: false
    }
  }
  attr {
    key: "transpose_b"
    value {
      b: true
    }
  }
}
node {
  name: "gradients/MatMul_4_grad/MatMul_1"
  op: "MatMul"
  input: "Sigmoid_3"
  input: "gradients/Add_4_grad/tuple/control_dependency"
  attr {
    key: "T"
    value {
      type: DT_FLOAT
    }
  }
  attr {
    key: "transpose_a"
    value {
      b: true
    }
  }
  attr {
    key: "transpose_b"
    value {
      b: false
    }
  }
}
node {
  name: "gradients/MatMul_4_grad/tuple/group_deps"
  op: "NoOp"
  input: "^gradients/MatMul_4_grad/MatMul"
  input: "^gradients/MatMul_4_grad/MatMul_1"
}
node {
  name: "gradients/MatMul_4_grad/tuple/control_dependency"
  op: "Identity"
  input: "gradients/MatMul_4_grad/MatMul"
  input: "^gradients/MatMul_4_grad/tuple/group_deps"
  attr {
    key: "T"
    value {
      type: DT_FLOAT
    }
  }
  attr {
    key: "_class"
    value {
      list {
        s: "loc:@gradients/MatMul_4_grad/MatMul"
      }
    }
  }
}
node {
  name: "gradients/MatMul_4_grad/tuple/control_dependency_1"
  op: "Identity"
  input: "gradients/MatMul_4_grad/MatMul_1"
  input: "^gradients/MatMul_4_grad/tuple/group_deps"
  attr {
    key: "T"
    value {
      type: DT_FLOAT
    }
  }
  attr {
    key: "_class"
    value {
      list {
        s: "loc:@gradients/MatMul_4_grad/MatMul_1"
      }
    }
  }
}
node {
  name: "gradients/Sigmoid_3_grad/SigmoidGrad"
  op: "SigmoidGrad"
  input: "Sigmoid_3"
  input: "gradients/MatMul_4_grad/tuple/control_dependency"
  attr {
    key: "T"
    value {
      type: DT_FLOAT
    }
  }
}
node {
  name: "gradients/Add_3_grad/Shape"
  op: "Shape"
  input: "MatMul_3"
  attr {
    key: "T"
    value {
      type: DT_FLOAT
    }
  }
  attr {
    key: "out_type"
    value {
      type: DT_INT32
    }
  }
}
node {
  name: "gradients/Add_3_grad/Shape_1"
  op: "Const"
  attr {
    key: "dtype"
    value {
      type: DT_INT32
    }
  }
  attr {
    key: "value"
    value {
      tensor {
        dtype: DT_INT32
        tensor_shape {
          dim {
            size: 1
          }
        }
        int_val: 16
      }
    }
  }
}
node {
  name: "gradients/Add_3_grad/BroadcastGradientArgs"
  op: "BroadcastGradientArgs"
  input: "gradients/Add_3_grad/Shape"
  input: "gradients/Add_3_grad/Shape_1"
  attr {
    key: "T"
    value {
      type: DT_INT32
    }
  }
}
node {
  name: "gradients/Add_3_grad/Sum"
  op: "Sum"
  input: "gradients/Sigmoid_3_grad/SigmoidGrad"
  input: "gradients/Add_3_grad/BroadcastGradientArgs"
  attr {
    key: "T"
    value {
      type: DT_FLOAT
    }
  }
  attr {
    key: "Tidx"
    value {
      type: DT_INT32
    }
  }
  attr {
    key: "keep_dims"
    value {
      b: false
    }
  }
}
node {
  name: "gradients/Add_3_grad/Reshape"
  op: "Reshape"
  input: "gradients/Add_3_grad/Sum"
  input: "gradients/Add_3_grad/Shape"
  attr {
    key: "T"
    value {
      type: DT_FLOAT
    }
  }
  attr {
    key: "Tshape"
    value {
      type: DT_INT32
    }
  }
}
node {
  name: "gradients/Add_3_grad/Sum_1"
  op: "Sum"
  input: "gradients/Sigmoid_3_grad/SigmoidGrad"
  input: "gradients/Add_3_grad/BroadcastGradientArgs:1"
  attr {
    key: "T"
    value {
      type: DT_FLOAT
    }
  }
  attr {
    key: "Tidx"
    value {
      type: DT_INT32
    }
  }
  attr {
    key: "keep_dims"
    value {
      b: false
    }
  }
}
node {
  name: "gradients/Add_3_grad/Reshape_1"
  op: "Reshape"
  input: "gradients/Add_3_grad/Sum_1"
  input: "gradients/Add_3_grad/Shape_1"
  attr {
    key: "T"
    value {
      type: DT_FLOAT
    }
  }
  attr {
    key: "Tshape"
    value {
      type: DT_INT32
    }
  }
}
node {
  name: "gradients/Add_3_grad/tuple/group_deps"
  op: "NoOp"
  input: "^gradients/Add_3_grad/Reshape"
  input: "^gradients/Add_3_grad/Reshape_1"
}
node {
  name: "gradients/Add_3_grad/tuple/control_dependency"
  op: "Identity"
  input: "gradients/Add_3_grad/Reshape"
  input: "^gradients/Add_3_grad/tuple/group_deps"
  attr {
    key: "T"
    value {
      type: DT_FLOAT
    }
  }
  attr {
    key: "_class"
    value {
      list {
        s: "loc:@gradients/Add_3_grad/Reshape"
      }
    }
  }
}
node {
  name: "gradients/Add_3_grad/tuple/control_dependency_1"
  op: "Identity"
  input: "gradients/Add_3_grad/Reshape_1"
  input: "^gradients/Add_3_grad/tuple/group_deps"
  attr {
    key: "T"
    value {
      type: DT_FLOAT
    }
  }
  attr {
    key: "_class"
    value {
      list {
        s: "loc:@gradients/Add_3_grad/Reshape_1"
      }
    }
  }
}
node {
  name: "gradients/MatMul_3_grad/MatMul"
  op: "MatMul"
  input: "gradients/Add_3_grad/tuple/control_dependency"
  input: "Variable_7/read"
  attr {
    key: "T"
    value {
      type: DT_FLOAT
    }
  }
  attr {
    key: "transpose_a"
    value {
      b: false
    }
  }
  attr {
    key: "transpose_b"
    value {
      b: true
    }
  }
}
node {
  name: "gradients/MatMul_3_grad/MatMul_1"
  op: "MatMul"
  input: "Sigmoid_2"
  input: "gradients/Add_3_grad/tuple/control_dependency"
  attr {
    key: "T"
    value {
      type: DT_FLOAT
    }
  }
  attr {
    key: "transpose_a"
    value {
      b: true
    }
  }
  attr {
    key: "transpose_b"
    value {
      b: false
    }
  }
}
node {
  name: "gradients/MatMul_3_grad/tuple/group_deps"
  op: "NoOp"
  input: "^gradients/MatMul_3_grad/MatMul"
  input: "^gradients/MatMul_3_grad/MatMul_1"
}
node {
  name: "gradients/MatMul_3_grad/tuple/control_dependency"
  op: "Identity"
  input: "gradients/MatMul_3_grad/MatMul"
  input: "^gradients/MatMul_3_grad/tuple/group_deps"
  attr {
    key: "T"
    value {
      type: DT_FLOAT
    }
  }
  attr {
    key: "_class"
    value {
      list {
        s: "loc:@gradients/MatMul_3_grad/MatMul"
      }
    }
  }
}
node {
  name: "gradients/MatMul_3_grad/tuple/control_dependency_1"
  op: "Identity"
  input: "gradients/MatMul_3_grad/MatMul_1"
  input: "^gradients/MatMul_3_grad/tuple/group_deps"
  attr {
    key: "T"
    value {
      type: DT_FLOAT
    }
  }
  attr {
    key: "_class"
    value {
      list {
        s: "loc:@gradients/MatMul_3_grad/MatMul_1"
      }
    }
  }
}
node {
  name: "gradients/Sigmoid_2_grad/SigmoidGrad"
  op: "SigmoidGrad"
  input: "Sigmoid_2"
  input: "gradients/MatMul_3_grad/tuple/control_dependency"
  attr {
    key: "T"
    value {
      type: DT_FLOAT
    }
  }
}
node {
  name: "gradients/Add_2_grad/Shape"
  op: "Shape"
  input: "MatMul_2"
  attr {
    key: "T"
    value {
      type: DT_FLOAT
    }
  }
  attr {
    key: "out_type"
    value {
      type: DT_INT32
    }
  }
}
node {
  name: "gradients/Add_2_grad/Shape_1"
  op: "Const"
  attr {
    key: "dtype"
    value {
      type: DT_INT32
    }
  }
  attr {
    key: "value"
    value {
      tensor {
        dtype: DT_INT32
        tensor_shape {
          dim {
            size: 1
          }
        }
        int_val: 32
      }
    }
  }
}
node {
  name: "gradients/Add_2_grad/BroadcastGradientArgs"
  op: "BroadcastGradientArgs"
  input: "gradients/Add_2_grad/Shape"
  input: "gradients/Add_2_grad/Shape_1"
  attr {
    key: "T"
    value {
      type: DT_INT32
    }
  }
}
node {
  name: "gradients/Add_2_grad/Sum"
  op: "Sum"
  input: "gradients/Sigmoid_2_grad/SigmoidGrad"
  input: "gradients/Add_2_grad/BroadcastGradientArgs"
  attr {
    key: "T"
    value {
      type: DT_FLOAT
    }
  }
  attr {
    key: "Tidx"
    value {
      type: DT_INT32
    }
  }
  attr {
    key: "keep_dims"
    value {
      b: false
    }
  }
}
node {
  name: "gradients/Add_2_grad/Reshape"
  op: "Reshape"
  input: "gradients/Add_2_grad/Sum"
  input: "gradients/Add_2_grad/Shape"
  attr {
    key: "T"
    value {
      type: DT_FLOAT
    }
  }
  attr {
    key: "Tshape"
    value {
      type: DT_INT32
    }
  }
}
node {
  name: "gradients/Add_2_grad/Sum_1"
  op: "Sum"
  input: "gradients/Sigmoid_2_grad/SigmoidGrad"
  input: "gradients/Add_2_grad/BroadcastGradientArgs:1"
  attr {
    key: "T"
    value {
      type: DT_FLOAT
    }
  }
  attr {
    key: "Tidx"
    value {
      type: DT_INT32
    }
  }
  attr {
    key: "keep_dims"
    value {
      b: false
    }
  }
}
node {
  name: "gradients/Add_2_grad/Reshape_1"
  op: "Reshape"
  input: "gradients/Add_2_grad/Sum_1"
  input: "gradients/Add_2_grad/Shape_1"
  attr {
    key: "T"
    value {
      type: DT_FLOAT
    }
  }
  attr {
    key: "Tshape"
    value {
      type: DT_INT32
    }
  }
}
node {
  name: "gradients/Add_2_grad/tuple/group_deps"
  op: "NoOp"
  input: "^gradients/Add_2_grad/Reshape"
  input: "^gradients/Add_2_grad/Reshape_1"
}
node {
  name: "gradients/Add_2_grad/tuple/control_dependency"
  op: "Identity"
  input: "gradients/Add_2_grad/Reshape"
  input: "^gradients/Add_2_grad/tuple/group_deps"
  attr {
    key: "T"
    value {
      type: DT_FLOAT
    }
  }
  attr {
    key: "_class"
    value {
      list {
        s: "loc:@gradients/Add_2_grad/Reshape"
      }
    }
  }
}
node {
  name: "gradients/Add_2_grad/tuple/control_dependency_1"
  op: "Identity"
  input: "gradients/Add_2_grad/Reshape_1"
  input: "^gradients/Add_2_grad/tuple/group_deps"
  attr {
    key: "T"
    value {
      type: DT_FLOAT
    }
  }
  attr {
    key: "_class"
    value {
      list {
        s: "loc:@gradients/Add_2_grad/Reshape_1"
      }
    }
  }
}
node {
  name: "gradients/MatMul_2_grad/MatMul"
  op: "MatMul"
  input: "gradients/Add_2_grad/tuple/control_dependency"
  input: "Variable_6/read"
  attr {
    key: "T"
    value {
      type: DT_FLOAT
    }
  }
  attr {
    key: "transpose_a"
    value {
      b: false
    }
  }
  attr {
    key: "transpose_b"
    value {
      b: true
    }
  }
}
node {
  name: "gradients/MatMul_2_grad/MatMul_1"
  op: "MatMul"
  input: "Sigmoid_1"
  input: "gradients/Add_2_grad/tuple/control_dependency"
  attr {
    key: "T"
    value {
      type: DT_FLOAT
    }
  }
  attr {
    key: "transpose_a"
    value {
      b: true
    }
  }
  attr {
    key: "transpose_b"
    value {
      b: false
    }
  }
}
node {
  name: "gradients/MatMul_2_grad/tuple/group_deps"
  op: "NoOp"
  input: "^gradients/MatMul_2_grad/MatMul"
  input: "^gradients/MatMul_2_grad/MatMul_1"
}
node {
  name: "gradients/MatMul_2_grad/tuple/control_dependency"
  op: "Identity"
  input: "gradients/MatMul_2_grad/MatMul"
  input: "^gradients/MatMul_2_grad/tuple/group_deps"
  attr {
    key: "T"
    value {
      type: DT_FLOAT
    }
  }
  attr {
    key: "_class"
    value {
      list {
        s: "loc:@gradients/MatMul_2_grad/MatMul"
      }
    }
  }
}
node {
  name: "gradients/MatMul_2_grad/tuple/control_dependency_1"
  op: "Identity"
  input: "gradients/MatMul_2_grad/MatMul_1"
  input: "^gradients/MatMul_2_grad/tuple/group_deps"
  attr {
    key: "T"
    value {
      type: DT_FLOAT
    }
  }
  attr {
    key: "_class"
    value {
      list {
        s: "loc:@gradients/MatMul_2_grad/MatMul_1"
      }
    }
  }
}
node {
  name: "gradients/Sigmoid_1_grad/SigmoidGrad"
  op: "SigmoidGrad"
  input: "Sigmoid_1"
  input: "gradients/MatMul_2_grad/tuple/control_dependency"
  attr {
    key: "T"
    value {
      type: DT_FLOAT
    }
  }
}
node {
  name: "gradients/Add_1_grad/Shape"
  op: "Shape"
  input: "MatMul_1"
  attr {
    key: "T"
    value {
      type: DT_FLOAT
    }
  }
  attr {
    key: "out_type"
    value {
      type: DT_INT32
    }
  }
}
node {
  name: "gradients/Add_1_grad/Shape_1"
  op: "Const"
  attr {
    key: "dtype"
    value {
      type: DT_INT32
    }
  }
  attr {
    key: "value"
    value {
      tensor {
        dtype: DT_INT32
        tensor_shape {
          dim {
            size: 1
          }
        }
        int_val: 64
      }
    }
  }
}
node {
  name: "gradients/Add_1_grad/BroadcastGradientArgs"
  op: "BroadcastGradientArgs"
  input: "gradients/Add_1_grad/Shape"
  input: "gradients/Add_1_grad/Shape_1"
  attr {
    key: "T"
    value {
      type: DT_INT32
    }
  }
}
node {
  name: "gradients/Add_1_grad/Sum"
  op: "Sum"
  input: "gradients/Sigmoid_1_grad/SigmoidGrad"
  input: "gradients/Add_1_grad/BroadcastGradientArgs"
  attr {
    key: "T"
    value {
      type: DT_FLOAT
    }
  }
  attr {
    key: "Tidx"
    value {
      type: DT_INT32
    }
  }
  attr {
    key: "keep_dims"
    value {
      b: false
    }
  }
}
node {
  name: "gradients/Add_1_grad/Reshape"
  op: "Reshape"
  input: "gradients/Add_1_grad/Sum"
  input: "gradients/Add_1_grad/Shape"
  attr {
    key: "T"
    value {
      type: DT_FLOAT
    }
  }
  attr {
    key: "Tshape"
    value {
      type: DT_INT32
    }
  }
}
node {
  name: "gradients/Add_1_grad/Sum_1"
  op: "Sum"
  input: "gradients/Sigmoid_1_grad/SigmoidGrad"
  input: "gradients/Add_1_grad/BroadcastGradientArgs:1"
  attr {
    key: "T"
    value {
      type: DT_FLOAT
    }
  }
  attr {
    key: "Tidx"
    value {
      type: DT_INT32
    }
  }
  attr {
    key: "keep_dims"
    value {
      b: false
    }
  }
}
node {
  name: "gradients/Add_1_grad/Reshape_1"
  op: "Reshape"
  input: "gradients/Add_1_grad/Sum_1"
  input: "gradients/Add_1_grad/Shape_1"
  attr {
    key: "T"
    value {
      type: DT_FLOAT
    }
  }
  attr {
    key: "Tshape"
    value {
      type: DT_INT32
    }
  }
}
node {
  name: "gradients/Add_1_grad/tuple/group_deps"
  op: "NoOp"
  input: "^gradients/Add_1_grad/Reshape"
  input: "^gradients/Add_1_grad/Reshape_1"
}
node {
  name: "gradients/Add_1_grad/tuple/control_dependency"
  op: "Identity"
  input: "gradients/Add_1_grad/Reshape"
  input: "^gradients/Add_1_grad/tuple/group_deps"
  attr {
    key: "T"
    value {
      type: DT_FLOAT
    }
  }
  attr {
    key: "_class"
    value {
      list {
        s: "loc:@gradients/Add_1_grad/Reshape"
      }
    }
  }
}
node {
  name: "gradients/Add_1_grad/tuple/control_dependency_1"
  op: "Identity"
  input: "gradients/Add_1_grad/Reshape_1"
  input: "^gradients/Add_1_grad/tuple/group_deps"
  attr {
    key: "T"
    value {
      type: DT_FLOAT
    }
  }
  attr {
    key: "_class"
    value {
      list {
        s: "loc:@gradients/Add_1_grad/Reshape_1"
      }
    }
  }
}
node {
  name: "gradients/MatMul_1_grad/MatMul"
  op: "MatMul"
  input: "gradients/Add_1_grad/tuple/control_dependency"
  input: "Variable_5/read"
  attr {
    key: "T"
    value {
      type: DT_FLOAT
    }
  }
  attr {
    key: "transpose_a"
    value {
      b: false
    }
  }
  attr {
    key: "transpose_b"
    value {
      b: true
    }
  }
}
node {
  name: "gradients/MatMul_1_grad/MatMul_1"
  op: "MatMul"
  input: "Sigmoid"
  input: "gradients/Add_1_grad/tuple/control_dependency"
  attr {
    key: "T"
    value {
      type: DT_FLOAT
    }
  }
  attr {
    key: "transpose_a"
    value {
      b: true
    }
  }
  attr {
    key: "transpose_b"
    value {
      b: false
    }
  }
}
node {
  name: "gradients/MatMul_1_grad/tuple/group_deps"
  op: "NoOp"
  input: "^gradients/MatMul_1_grad/MatMul"
  input: "^gradients/MatMul_1_grad/MatMul_1"
}
node {
  name: "gradients/MatMul_1_grad/tuple/control_dependency"
  op: "Identity"
  input: "gradients/MatMul_1_grad/MatMul"
  input: "^gradients/MatMul_1_grad/tuple/group_deps"
  attr {
    key: "T"
    value {
      type: DT_FLOAT
    }
  }
  attr {
    key: "_class"
    value {
      list {
        s: "loc:@gradients/MatMul_1_grad/MatMul"
      }
    }
  }
}
node {
  name: "gradients/MatMul_1_grad/tuple/control_dependency_1"
  op: "Identity"
  input: "gradients/MatMul_1_grad/MatMul_1"
  input: "^gradients/MatMul_1_grad/tuple/group_deps"
  attr {
    key: "T"
    value {
      type: DT_FLOAT
    }
  }
  attr {
    key: "_class"
    value {
      list {
        s: "loc:@gradients/MatMul_1_grad/MatMul_1"
      }
    }
  }
}
node {
  name: "gradients/Sigmoid_grad/SigmoidGrad"
  op: "SigmoidGrad"
  input: "Sigmoid"
  input: "gradients/MatMul_1_grad/tuple/control_dependency"
  attr {
    key: "T"
    value {
      type: DT_FLOAT
    }
  }
}
node {
  name: "gradients/Add_grad/Shape"
  op: "Shape"
  input: "MatMul"
  attr {
    key: "T"
    value {
      type: DT_FLOAT
    }
  }
  attr {
    key: "out_type"
    value {
      type: DT_INT32
    }
  }
}
node {
  name: "gradients/Add_grad/Shape_1"
  op: "Const"
  attr {
    key: "dtype"
    value {
      type: DT_INT32
    }
  }
  attr {
    key: "value"
    value {
      tensor {
        dtype: DT_INT32
        tensor_shape {
          dim {
            size: 1
          }
        }
        int_val: 70
      }
    }
  }
}
node {
  name: "gradients/Add_grad/BroadcastGradientArgs"
  op: "BroadcastGradientArgs"
  input: "gradients/Add_grad/Shape"
  input: "gradients/Add_grad/Shape_1"
  attr {
    key: "T"
    value {
      type: DT_INT32
    }
  }
}
node {
  name: "gradients/Add_grad/Sum"
  op: "Sum"
  input: "gradients/Sigmoid_grad/SigmoidGrad"
  input: "gradients/Add_grad/BroadcastGradientArgs"
  attr {
    key: "T"
    value {
      type: DT_FLOAT
    }
  }
  attr {
    key: "Tidx"
    value {
      type: DT_INT32
    }
  }
  attr {
    key: "keep_dims"
    value {
      b: false
    }
  }
}
node {
  name: "gradients/Add_grad/Reshape"
  op: "Reshape"
  input: "gradients/Add_grad/Sum"
  input: "gradients/Add_grad/Shape"
  attr {
    key: "T"
    value {
      type: DT_FLOAT
    }
  }
  attr {
    key: "Tshape"
    value {
      type: DT_INT32
    }
  }
}
node {
  name: "gradients/Add_grad/Sum_1"
  op: "Sum"
  input: "gradients/Sigmoid_grad/SigmoidGrad"
  input: "gradients/Add_grad/BroadcastGradientArgs:1"
  attr {
    key: "T"
    value {
      type: DT_FLOAT
    }
  }
  attr {
    key: "Tidx"
    value {
      type: DT_INT32
    }
  }
  attr {
    key: "keep_dims"
    value {
      b: false
    }
  }
}
node {
  name: "gradients/Add_grad/Reshape_1"
  op: "Reshape"
  input: "gradients/Add_grad/Sum_1"
  input: "gradients/Add_grad/Shape_1"
  attr {
    key: "T"
    value {
      type: DT_FLOAT
    }
  }
  attr {
    key: "Tshape"
    value {
      type: DT_INT32
    }
  }
}
node {
  name: "gradients/Add_grad/tuple/group_deps"
  op: "NoOp"
  input: "^gradients/Add_grad/Reshape"
  input: "^gradients/Add_grad/Reshape_1"
}
node {
  name: "gradients/Add_grad/tuple/control_dependency"
  op: "Identity"
  input: "gradients/Add_grad/Reshape"
  input: "^gradients/Add_grad/tuple/group_deps"
  attr {
    key: "T"
    value {
      type: DT_FLOAT
    }
  }
  attr {
    key: "_class"
    value {
      list {
        s: "loc:@gradients/Add_grad/Reshape"
      }
    }
  }
}
node {
  name: "gradients/Add_grad/tuple/control_dependency_1"
  op: "Identity"
  input: "gradients/Add_grad/Reshape_1"
  input: "^gradients/Add_grad/tuple/group_deps"
  attr {
    key: "T"
    value {
      type: DT_FLOAT
    }
  }
  attr {
    key: "_class"
    value {
      list {
        s: "loc:@gradients/Add_grad/Reshape_1"
      }
    }
  }
}
node {
  name: "gradients/MatMul_grad/MatMul"
  op: "MatMul"
  input: "gradients/Add_grad/tuple/control_dependency"
  input: "Variable_4/read"
  attr {
    key: "T"
    value {
      type: DT_FLOAT
    }
  }
  attr {
    key: "transpose_a"
    value {
      b: false
    }
  }
  attr {
    key: "transpose_b"
    value {
      b: true
    }
  }
}
node {
  name: "gradients/MatMul_grad/MatMul_1"
  op: "MatMul"
  input: "input_tensor"
  input: "gradients/Add_grad/tuple/control_dependency"
  attr {
    key: "T"
    value {
      type: DT_FLOAT
    }
  }
  attr {
    key: "transpose_a"
    value {
      b: true
    }
  }
  attr {
    key: "transpose_b"
    value {
      b: false
    }
  }
}
node {
  name: "gradients/MatMul_grad/tuple/group_deps"
  op: "NoOp"
  input: "^gradients/MatMul_grad/MatMul"
  input: "^gradients/MatMul_grad/MatMul_1"
}
node {
  name: "gradients/MatMul_grad/tuple/control_dependency"
  op: "Identity"
  input: "gradients/MatMul_grad/MatMul"
  input: "^gradients/MatMul_grad/tuple/group_deps"
  attr {
    key: "T"
    value {
      type: DT_FLOAT
    }
  }
  attr {
    key: "_class"
    value {
      list {
        s: "loc:@gradients/MatMul_grad/MatMul"
      }
    }
  }
}
node {
  name: "gradients/MatMul_grad/tuple/control_dependency_1"
  op: "Identity"
  input: "gradients/MatMul_grad/MatMul_1"
  input: "^gradients/MatMul_grad/tuple/group_deps"
  attr {
    key: "T"
    value {
      type: DT_FLOAT
    }
  }
  attr {
    key: "_class"
    value {
      list {
        s: "loc:@gradients/MatMul_grad/MatMul_1"
      }
    }
  }
}
node {
  name: "beta1_power/initial_value"
  op: "Const"
  attr {
    key: "_class"
    value {
      list {
        s: "loc:@Variable_10"
      }
    }
  }
  attr {
    key: "dtype"
    value {
      type: DT_FLOAT
    }
  }
  attr {
    key: "value"
    value {
      tensor {
        dtype: DT_FLOAT
        tensor_shape {
        }
        float_val: 0.8999999761581421
      }
    }
  }
}
node {
  name: "beta1_power"
  op: "VariableV2"
  attr {
    key: "_class"
    value {
      list {
        s: "loc:@Variable_10"
      }
    }
  }
  attr {
    key: "container"
    value {
      s: ""
    }
  }
  attr {
    key: "dtype"
    value {
      type: DT_FLOAT
    }
  }
  attr {
    key: "shape"
    value {
      shape {
      }
    }
  }
  attr {
    key: "shared_name"
    value {
      s: ""
    }
  }
}
node {
  name: "beta1_power/Assign"
  op: "Assign"
  input: "beta1_power"
  input: "beta1_power/initial_value"
  attr {
    key: "T"
    value {
      type: DT_FLOAT
    }
  }
  attr {
    key: "_class"
    value {
      list {
        s: "loc:@Variable_10"
      }
    }
  }
  attr {
    key: "use_locking"
    value {
      b: true
    }
  }
  attr {
    key: "validate_shape"
    value {
      b: true
    }
  }
}
node {
  name: "beta1_power/read"
  op: "Identity"
  input: "beta1_power"
  attr {
    key: "T"
    value {
      type: DT_FLOAT
    }
  }
  attr {
    key: "_class"
    value {
      list {
        s: "loc:@Variable_10"
      }
    }
  }
}
node {
  name: "beta2_power/initial_value"
  op: "Const"
  attr {
    key: "_class"
    value {
      list {
        s: "loc:@Variable_10"
      }
    }
  }
  attr {
    key: "dtype"
    value {
      type: DT_FLOAT
    }
  }
  attr {
    key: "value"
    value {
      tensor {
        dtype: DT_FLOAT
        tensor_shape {
        }
        float_val: 0.9990000128746033
      }
    }
  }
}
node {
  name: "beta2_power"
  op: "VariableV2"
  attr {
    key: "_class"
    value {
      list {
        s: "loc:@Variable_10"
      }
    }
  }
  attr {
    key: "container"
    value {
      s: ""
    }
  }
  attr {
    key: "dtype"
    value {
      type: DT_FLOAT
    }
  }
  attr {
    key: "shape"
    value {
      shape {
      }
    }
  }
  attr {
    key: "shared_name"
    value {
      s: ""
    }
  }
}
node {
  name: "beta2_power/Assign"
  op: "Assign"
  input: "beta2_power"
  input: "beta2_power/initial_value"
  attr {
    key: "T"
    value {
      type: DT_FLOAT
    }
  }
  attr {
    key: "_class"
    value {
      list {
        s: "loc:@Variable_10"
      }
    }
  }
  attr {
    key: "use_locking"
    value {
      b: true
    }
  }
  attr {
    key: "validate_shape"
    value {
      b: true
    }
  }
}
node {
  name: "beta2_power/read"
  op: "Identity"
  input: "beta2_power"
  attr {
    key: "T"
    value {
      type: DT_FLOAT
    }
  }
  attr {
    key: "_class"
    value {
      list {
        s: "loc:@Variable_10"
      }
    }
  }
}
node {
  name: "Variable_4/Adam/Initializer/zeros/shape_as_tensor"
  op: "Const"
  attr {
    key: "_class"
    value {
      list {
        s: "loc:@Variable_4"
      }
    }
  }
  attr {
    key: "dtype"
    value {
      type: DT_INT32
    }
  }
  attr {
    key: "value"
    value {
      tensor {
        dtype: DT_INT32
        tensor_shape {
          dim {
            size: 2
          }
        }
        tensor_content: "0\000\000\000F\000\000\000"
      }
    }
  }
}
node {
  name: "Variable_4/Adam/Initializer/zeros/Const"
  op: "Const"
  attr {
    key: "_class"
    value {
      list {
        s: "loc:@Variable_4"
      }
    }
  }
  attr {
    key: "dtype"
    value {
      type: DT_FLOAT
    }
  }
  attr {
    key: "value"
    value {
      tensor {
        dtype: DT_FLOAT
        tensor_shape {
        }
        float_val: 0.0
      }
    }
  }
}
node {
  name: "Variable_4/Adam/Initializer/zeros"
  op: "Fill"
  input: "Variable_4/Adam/Initializer/zeros/shape_as_tensor"
  input: "Variable_4/Adam/Initializer/zeros/Const"
  attr {
    key: "T"
    value {
      type: DT_FLOAT
    }
  }
  attr {
    key: "_class"
    value {
      list {
        s: "loc:@Variable_4"
      }
    }
  }
  attr {
    key: "index_type"
    value {
      type: DT_INT32
    }
  }
}
node {
  name: "Variable_4/Adam"
  op: "VariableV2"
  attr {
    key: "_class"
    value {
      list {
        s: "loc:@Variable_4"
      }
    }
  }
  attr {
    key: "container"
    value {
      s: ""
    }
  }
  attr {
    key: "dtype"
    value {
      type: DT_FLOAT
    }
  }
  attr {
    key: "shape"
    value {
      shape {
        dim {
          size: 48
        }
        dim {
          size: 70
        }
      }
    }
  }
  attr {
    key: "shared_name"
    value {
      s: ""
    }
  }
}
node {
  name: "Variable_4/Adam/Assign"
  op: "Assign"
  input: "Variable_4/Adam"
  input: "Variable_4/Adam/Initializer/zeros"
  attr {
    key: "T"
    value {
      type: DT_FLOAT
    }
  }
  attr {
    key: "_class"
    value {
      list {
        s: "loc:@Variable_4"
      }
    }
  }
  attr {
    key: "use_locking"
    value {
      b: true
    }
  }
  attr {
    key: "validate_shape"
    value {
      b: true
    }
  }
}
node {
  name: "Variable_4/Adam/read"
  op: "Identity"
  input: "Variable_4/Adam"
  attr {
    key: "T"
    value {
      type: DT_FLOAT
    }
  }
  attr {
    key: "_class"
    value {
      list {
        s: "loc:@Variable_4"
      }
    }
  }
}
node {
  name: "Variable_4/Adam_1/Initializer/zeros/shape_as_tensor"
  op: "Const"
  attr {
    key: "_class"
    value {
      list {
        s: "loc:@Variable_4"
      }
    }
  }
  attr {
    key: "dtype"
    value {
      type: DT_INT32
    }
  }
  attr {
    key: "value"
    value {
      tensor {
        dtype: DT_INT32
        tensor_shape {
          dim {
            size: 2
          }
        }
        tensor_content: "0\000\000\000F\000\000\000"
      }
    }
  }
}
node {
  name: "Variable_4/Adam_1/Initializer/zeros/Const"
  op: "Const"
  attr {
    key: "_class"
    value {
      list {
        s: "loc:@Variable_4"
      }
    }
  }
  attr {
    key: "dtype"
    value {
      type: DT_FLOAT
    }
  }
  attr {
    key: "value"
    value {
      tensor {
        dtype: DT_FLOAT
        tensor_shape {
        }
        float_val: 0.0
      }
    }
  }
}
node {
  name: "Variable_4/Adam_1/Initializer/zeros"
  op: "Fill"
  input: "Variable_4/Adam_1/Initializer/zeros/shape_as_tensor"
  input: "Variable_4/Adam_1/Initializer/zeros/Const"
  attr {
    key: "T"
    value {
      type: DT_FLOAT
    }
  }
  attr {
    key: "_class"
    value {
      list {
        s: "loc:@Variable_4"
      }
    }
  }
  attr {
    key: "index_type"
    value {
      type: DT_INT32
    }
  }
}
node {
  name: "Variable_4/Adam_1"
  op: "VariableV2"
  attr {
    key: "_class"
    value {
      list {
        s: "loc:@Variable_4"
      }
    }
  }
  attr {
    key: "container"
    value {
      s: ""
    }
  }
  attr {
    key: "dtype"
    value {
      type: DT_FLOAT
    }
  }
  attr {
    key: "shape"
    value {
      shape {
        dim {
          size: 48
        }
        dim {
          size: 70
        }
      }
    }
  }
  attr {
    key: "shared_name"
    value {
      s: ""
    }
  }
}
node {
  name: "Variable_4/Adam_1/Assign"
  op: "Assign"
  input: "Variable_4/Adam_1"
  input: "Variable_4/Adam_1/Initializer/zeros"
  attr {
    key: "T"
    value {
      type: DT_FLOAT
    }
  }
  attr {
    key: "_class"
    value {
      list {
        s: "loc:@Variable_4"
      }
    }
  }
  attr {
    key: "use_locking"
    value {
      b: true
    }
  }
  attr {
    key: "validate_shape"
    value {
      b: true
    }
  }
}
node {
  name: "Variable_4/Adam_1/read"
  op: "Identity"
  input: "Variable_4/Adam_1"
  attr {
    key: "T"
    value {
      type: DT_FLOAT
    }
  }
  attr {
    key: "_class"
    value {
      list {
        s: "loc:@Variable_4"
      }
    }
  }
}
node {
  name: "Variable_5/Adam/Initializer/zeros/shape_as_tensor"
  op: "Const"
  attr {
    key: "_class"
    value {
      list {
        s: "loc:@Variable_5"
      }
    }
  }
  attr {
    key: "dtype"
    value {
      type: DT_INT32
    }
  }
  attr {
    key: "value"
    value {
      tensor {
        dtype: DT_INT32
        tensor_shape {
          dim {
            size: 2
          }
        }
        tensor_content: "F\000\000\000@\000\000\000"
      }
    }
  }
}
node {
  name: "Variable_5/Adam/Initializer/zeros/Const"
  op: "Const"
  attr {
    key: "_class"
    value {
      list {
        s: "loc:@Variable_5"
      }
    }
  }
  attr {
    key: "dtype"
    value {
      type: DT_FLOAT
    }
  }
  attr {
    key: "value"
    value {
      tensor {
        dtype: DT_FLOAT
        tensor_shape {
        }
        float_val: 0.0
      }
    }
  }
}
node {
  name: "Variable_5/Adam/Initializer/zeros"
  op: "Fill"
  input: "Variable_5/Adam/Initializer/zeros/shape_as_tensor"
  input: "Variable_5/Adam/Initializer/zeros/Const"
  attr {
    key: "T"
    value {
      type: DT_FLOAT
    }
  }
  attr {
    key: "_class"
    value {
      list {
        s: "loc:@Variable_5"
      }
    }
  }
  attr {
    key: "index_type"
    value {
      type: DT_INT32
    }
  }
}
node {
  name: "Variable_5/Adam"
  op: "VariableV2"
  attr {
    key: "_class"
    value {
      list {
        s: "loc:@Variable_5"
      }
    }
  }
  attr {
    key: "container"
    value {
      s: ""
    }
  }
  attr {
    key: "dtype"
    value {
      type: DT_FLOAT
    }
  }
  attr {
    key: "shape"
    value {
      shape {
        dim {
          size: 70
        }
        dim {
          size: 64
        }
      }
    }
  }
  attr {
    key: "shared_name"
    value {
      s: ""
    }
  }
}
node {
  name: "Variable_5/Adam/Assign"
  op: "Assign"
  input: "Variable_5/Adam"
  input: "Variable_5/Adam/Initializer/zeros"
  attr {
    key: "T"
    value {
      type: DT_FLOAT
    }
  }
  attr {
    key: "_class"
    value {
      list {
        s: "loc:@Variable_5"
      }
    }
  }
  attr {
    key: "use_locking"
    value {
      b: true
    }
  }
  attr {
    key: "validate_shape"
    value {
      b: true
    }
  }
}
node {
  name: "Variable_5/Adam/read"
  op: "Identity"
  input: "Variable_5/Adam"
  attr {
    key: "T"
    value {
      type: DT_FLOAT
    }
  }
  attr {
    key: "_class"
    value {
      list {
        s: "loc:@Variable_5"
      }
    }
  }
}
node {
  name: "Variable_5/Adam_1/Initializer/zeros/shape_as_tensor"
  op: "Const"
  attr {
    key: "_class"
    value {
      list {
        s: "loc:@Variable_5"
      }
    }
  }
  attr {
    key: "dtype"
    value {
      type: DT_INT32
    }
  }
  attr {
    key: "value"
    value {
      tensor {
        dtype: DT_INT32
        tensor_shape {
          dim {
            size: 2
          }
        }
        tensor_content: "F\000\000\000@\000\000\000"
      }
    }
  }
}
node {
  name: "Variable_5/Adam_1/Initializer/zeros/Const"
  op: "Const"
  attr {
    key: "_class"
    value {
      list {
        s: "loc:@Variable_5"
      }
    }
  }
  attr {
    key: "dtype"
    value {
      type: DT_FLOAT
    }
  }
  attr {
    key: "value"
    value {
      tensor {
        dtype: DT_FLOAT
        tensor_shape {
        }
        float_val: 0.0
      }
    }
  }
}
node {
  name: "Variable_5/Adam_1/Initializer/zeros"
  op: "Fill"
  input: "Variable_5/Adam_1/Initializer/zeros/shape_as_tensor"
  input: "Variable_5/Adam_1/Initializer/zeros/Const"
  attr {
    key: "T"
    value {
      type: DT_FLOAT
    }
  }
  attr {
    key: "_class"
    value {
      list {
        s: "loc:@Variable_5"
      }
    }
  }
  attr {
    key: "index_type"
    value {
      type: DT_INT32
    }
  }
}
node {
  name: "Variable_5/Adam_1"
  op: "VariableV2"
  attr {
    key: "_class"
    value {
      list {
        s: "loc:@Variable_5"
      }
    }
  }
  attr {
    key: "container"
    value {
      s: ""
    }
  }
  attr {
    key: "dtype"
    value {
      type: DT_FLOAT
    }
  }
  attr {
    key: "shape"
    value {
      shape {
        dim {
          size: 70
        }
        dim {
          size: 64
        }
      }
    }
  }
  attr {
    key: "shared_name"
    value {
      s: ""
    }
  }
}
node {
  name: "Variable_5/Adam_1/Assign"
  op: "Assign"
  input: "Variable_5/Adam_1"
  input: "Variable_5/Adam_1/Initializer/zeros"
  attr {
    key: "T"
    value {
      type: DT_FLOAT
    }
  }
  attr {
    key: "_class"
    value {
      list {
        s: "loc:@Variable_5"
      }
    }
  }
  attr {
    key: "use_locking"
    value {
      b: true
    }
  }
  attr {
    key: "validate_shape"
    value {
      b: true
    }
  }
}
node {
  name: "Variable_5/Adam_1/read"
  op: "Identity"
  input: "Variable_5/Adam_1"
  attr {
    key: "T"
    value {
      type: DT_FLOAT
    }
  }
  attr {
    key: "_class"
    value {
      list {
        s: "loc:@Variable_5"
      }
    }
  }
}
node {
  name: "Variable_6/Adam/Initializer/zeros/shape_as_tensor"
  op: "Const"
  attr {
    key: "_class"
    value {
      list {
        s: "loc:@Variable_6"
      }
    }
  }
  attr {
    key: "dtype"
    value {
      type: DT_INT32
    }
  }
  attr {
    key: "value"
    value {
      tensor {
        dtype: DT_INT32
        tensor_shape {
          dim {
            size: 2
          }
        }
        tensor_content: "@\000\000\000 \000\000\000"
      }
    }
  }
}
node {
  name: "Variable_6/Adam/Initializer/zeros/Const"
  op: "Const"
  attr {
    key: "_class"
    value {
      list {
        s: "loc:@Variable_6"
      }
    }
  }
  attr {
    key: "dtype"
    value {
      type: DT_FLOAT
    }
  }
  attr {
    key: "value"
    value {
      tensor {
        dtype: DT_FLOAT
        tensor_shape {
        }
        float_val: 0.0
      }
    }
  }
}
node {
  name: "Variable_6/Adam/Initializer/zeros"
  op: "Fill"
  input: "Variable_6/Adam/Initializer/zeros/shape_as_tensor"
  input: "Variable_6/Adam/Initializer/zeros/Const"
  attr {
    key: "T"
    value {
      type: DT_FLOAT
    }
  }
  attr {
    key: "_class"
    value {
      list {
        s: "loc:@Variable_6"
      }
    }
  }
  attr {
    key: "index_type"
    value {
      type: DT_INT32
    }
  }
}
node {
  name: "Variable_6/Adam"
  op: "VariableV2"
  attr {
    key: "_class"
    value {
      list {
        s: "loc:@Variable_6"
      }
    }
  }
  attr {
    key: "container"
    value {
      s: ""
    }
  }
  attr {
    key: "dtype"
    value {
      type: DT_FLOAT
    }
  }
  attr {
    key: "shape"
    value {
      shape {
        dim {
          size: 64
        }
        dim {
          size: 32
        }
      }
    }
  }
  attr {
    key: "shared_name"
    value {
      s: ""
    }
  }
}
node {
  name: "Variable_6/Adam/Assign"
  op: "Assign"
  input: "Variable_6/Adam"
  input: "Variable_6/Adam/Initializer/zeros"
  attr {
    key: "T"
    value {
      type: DT_FLOAT
    }
  }
  attr {
    key: "_class"
    value {
      list {
        s: "loc:@Variable_6"
      }
    }
  }
  attr {
    key: "use_locking"
    value {
      b: true
    }
  }
  attr {
    key: "validate_shape"
    value {
      b: true
    }
  }
}
node {
  name: "Variable_6/Adam/read"
  op: "Identity"
  input: "Variable_6/Adam"
  attr {
    key: "T"
    value {
      type: DT_FLOAT
    }
  }
  attr {
    key: "_class"
    value {
      list {
        s: "loc:@Variable_6"
      }
    }
  }
}
node {
  name: "Variable_6/Adam_1/Initializer/zeros/shape_as_tensor"
  op: "Const"
  attr {
    key: "_class"
    value {
      list {
        s: "loc:@Variable_6"
      }
    }
  }
  attr {
    key: "dtype"
    value {
      type: DT_INT32
    }
  }
  attr {
    key: "value"
    value {
      tensor {
        dtype: DT_INT32
        tensor_shape {
          dim {
            size: 2
          }
        }
        tensor_content: "@\000\000\000 \000\000\000"
      }
    }
  }
}
node {
  name: "Variable_6/Adam_1/Initializer/zeros/Const"
  op: "Const"
  attr {
    key: "_class"
    value {
      list {
        s: "loc:@Variable_6"
      }
    }
  }
  attr {
    key: "dtype"
    value {
      type: DT_FLOAT
    }
  }
  attr {
    key: "value"
    value {
      tensor {
        dtype: DT_FLOAT
        tensor_shape {
        }
        float_val: 0.0
      }
    }
  }
}
node {
  name: "Variable_6/Adam_1/Initializer/zeros"
  op: "Fill"
  input: "Variable_6/Adam_1/Initializer/zeros/shape_as_tensor"
  input: "Variable_6/Adam_1/Initializer/zeros/Const"
  attr {
    key: "T"
    value {
      type: DT_FLOAT
    }
  }
  attr {
    key: "_class"
    value {
      list {
        s: "loc:@Variable_6"
      }
    }
  }
  attr {
    key: "index_type"
    value {
      type: DT_INT32
    }
  }
}
node {
  name: "Variable_6/Adam_1"
  op: "VariableV2"
  attr {
    key: "_class"
    value {
      list {
        s: "loc:@Variable_6"
      }
    }
  }
  attr {
    key: "container"
    value {
      s: ""
    }
  }
  attr {
    key: "dtype"
    value {
      type: DT_FLOAT
    }
  }
  attr {
    key: "shape"
    value {
      shape {
        dim {
          size: 64
        }
        dim {
          size: 32
        }
      }
    }
  }
  attr {
    key: "shared_name"
    value {
      s: ""
    }
  }
}
node {
  name: "Variable_6/Adam_1/Assign"
  op: "Assign"
  input: "Variable_6/Adam_1"
  input: "Variable_6/Adam_1/Initializer/zeros"
  attr {
    key: "T"
    value {
      type: DT_FLOAT
    }
  }
  attr {
    key: "_class"
    value {
      list {
        s: "loc:@Variable_6"
      }
    }
  }
  attr {
    key: "use_locking"
    value {
      b: true
    }
  }
  attr {
    key: "validate_shape"
    value {
      b: true
    }
  }
}
node {
  name: "Variable_6/Adam_1/read"
  op: "Identity"
  input: "Variable_6/Adam_1"
  attr {
    key: "T"
    value {
      type: DT_FLOAT
    }
  }
  attr {
    key: "_class"
    value {
      list {
        s: "loc:@Variable_6"
      }
    }
  }
}
node {
  name: "Variable_7/Adam/Initializer/zeros"
  op: "Const"
  attr {
    key: "_class"
    value {
      list {
        s: "loc:@Variable_7"
      }
    }
  }
  attr {
    key: "dtype"
    value {
      type: DT_FLOAT
    }
  }
  attr {
    key: "value"
    value {
      tensor {
        dtype: DT_FLOAT
        tensor_shape {
          dim {
            size: 32
          }
          dim {
            size: 16
          }
        }
        float_val: 0.0
      }
    }
  }
}
node {
  name: "Variable_7/Adam"
  op: "VariableV2"
  attr {
    key: "_class"
    value {
      list {
        s: "loc:@Variable_7"
      }
    }
  }
  attr {
    key: "container"
    value {
      s: ""
    }
  }
  attr {
    key: "dtype"
    value {
      type: DT_FLOAT
    }
  }
  attr {
    key: "shape"
    value {
      shape {
        dim {
          size: 32
        }
        dim {
          size: 16
        }
      }
    }
  }
  attr {
    key: "shared_name"
    value {
      s: ""
    }
  }
}
node {
  name: "Variable_7/Adam/Assign"
  op: "Assign"
  input: "Variable_7/Adam"
  input: "Variable_7/Adam/Initializer/zeros"
  attr {
    key: "T"
    value {
      type: DT_FLOAT
    }
  }
  attr {
    key: "_class"
    value {
      list {
        s: "loc:@Variable_7"
      }
    }
  }
  attr {
    key: "use_locking"
    value {
      b: true
    }
  }
  attr {
    key: "validate_shape"
    value {
      b: true
    }
  }
}
node {
  name: "Variable_7/Adam/read"
  op: "Identity"
  input: "Variable_7/Adam"
  attr {
    key: "T"
    value {
      type: DT_FLOAT
    }
  }
  attr {
    key: "_class"
    value {
      list {
        s: "loc:@Variable_7"
      }
    }
  }
}
node {
  name: "Variable_7/Adam_1/Initializer/zeros"
  op: "Const"
  attr {
    key: "_class"
    value {
      list {
        s: "loc:@Variable_7"
      }
    }
  }
  attr {
    key: "dtype"
    value {
      type: DT_FLOAT
    }
  }
  attr {
    key: "value"
    value {
      tensor {
        dtype: DT_FLOAT
        tensor_shape {
          dim {
            size: 32
          }
          dim {
            size: 16
          }
        }
        float_val: 0.0
      }
    }
  }
}
node {
  name: "Variable_7/Adam_1"
  op: "VariableV2"
  attr {
    key: "_class"
    value {
      list {
        s: "loc:@Variable_7"
      }
    }
  }
  attr {
    key: "container"
    value {
      s: ""
    }
  }
  attr {
    key: "dtype"
    value {
      type: DT_FLOAT
    }
  }
  attr {
    key: "shape"
    value {
      shape {
        dim {
          size: 32
        }
        dim {
          size: 16
        }
      }
    }
  }
  attr {
    key: "shared_name"
    value {
      s: ""
    }
  }
}
node {
  name: "Variable_7/Adam_1/Assign"
  op: "Assign"
  input: "Variable_7/Adam_1"
  input: "Variable_7/Adam_1/Initializer/zeros"
  attr {
    key: "T"
    value {
      type: DT_FLOAT
    }
  }
  attr {
    key: "_class"
    value {
      list {
        s: "loc:@Variable_7"
      }
    }
  }
  attr {
    key: "use_locking"
    value {
      b: true
    }
  }
  attr {
    key: "validate_shape"
    value {
      b: true
    }
  }
}
node {
  name: "Variable_7/Adam_1/read"
  op: "Identity"
  input: "Variable_7/Adam_1"
  attr {
    key: "T"
    value {
      type: DT_FLOAT
    }
  }
  attr {
    key: "_class"
    value {
      list {
        s: "loc:@Variable_7"
      }
    }
  }
}
node {
  name: "Variable_8/Adam/Initializer/zeros"
  op: "Const"
  attr {
    key: "_class"
    value {
      list {
        s: "loc:@Variable_8"
      }
    }
  }
  attr {
    key: "dtype"
    value {
      type: DT_FLOAT
    }
  }
  attr {
    key: "value"
    value {
      tensor {
        dtype: DT_FLOAT
        tensor_shape {
          dim {
            size: 16
          }
          dim {
            size: 8
          }
        }
        float_val: 0.0
      }
    }
  }
}
node {
  name: "Variable_8/Adam"
  op: "VariableV2"
  attr {
    key: "_class"
    value {
      list {
        s: "loc:@Variable_8"
      }
    }
  }
  attr {
    key: "container"
    value {
      s: ""
    }
  }
  attr {
    key: "dtype"
    value {
      type: DT_FLOAT
    }
  }
  attr {
    key: "shape"
    value {
      shape {
        dim {
          size: 16
        }
        dim {
          size: 8
        }
      }
    }
  }
  attr {
    key: "shared_name"
    value {
      s: ""
    }
  }
}
node {
  name: "Variable_8/Adam/Assign"
  op: "Assign"
  input: "Variable_8/Adam"
  input: "Variable_8/Adam/Initializer/zeros"
  attr {
    key: "T"
    value {
      type: DT_FLOAT
    }
  }
  attr {
    key: "_class"
    value {
      list {
        s: "loc:@Variable_8"
      }
    }
  }
  attr {
    key: "use_locking"
    value {
      b: true
    }
  }
  attr {
    key: "validate_shape"
    value {
      b: true
    }
  }
}
node {
  name: "Variable_8/Adam/read"
  op: "Identity"
  input: "Variable_8/Adam"
  attr {
    key: "T"
    value {
      type: DT_FLOAT
    }
  }
  attr {
    key: "_class"
    value {
      list {
        s: "loc:@Variable_8"
      }
    }
  }
}
node {
  name: "Variable_8/Adam_1/Initializer/zeros"
  op: "Const"
  attr {
    key: "_class"
    value {
      list {
        s: "loc:@Variable_8"
      }
    }
  }
  attr {
    key: "dtype"
    value {
      type: DT_FLOAT
    }
  }
  attr {
    key: "value"
    value {
      tensor {
        dtype: DT_FLOAT
        tensor_shape {
          dim {
            size: 16
          }
          dim {
            size: 8
          }
        }
        float_val: 0.0
      }
    }
  }
}
node {
  name: "Variable_8/Adam_1"
  op: "VariableV2"
  attr {
    key: "_class"
    value {
      list {
        s: "loc:@Variable_8"
      }
    }
  }
  attr {
    key: "container"
    value {
      s: ""
    }
  }
  attr {
    key: "dtype"
    value {
      type: DT_FLOAT
    }
  }
  attr {
    key: "shape"
    value {
      shape {
        dim {
          size: 16
        }
        dim {
          size: 8
        }
      }
    }
  }
  attr {
    key: "shared_name"
    value {
      s: ""
    }
  }
}
node {
  name: "Variable_8/Adam_1/Assign"
  op: "Assign"
  input: "Variable_8/Adam_1"
  input: "Variable_8/Adam_1/Initializer/zeros"
  attr {
    key: "T"
    value {
      type: DT_FLOAT
    }
  }
  attr {
    key: "_class"
    value {
      list {
        s: "loc:@Variable_8"
      }
    }
  }
  attr {
    key: "use_locking"
    value {
      b: true
    }
  }
  attr {
    key: "validate_shape"
    value {
      b: true
    }
  }
}
node {
  name: "Variable_8/Adam_1/read"
  op: "Identity"
  input: "Variable_8/Adam_1"
  attr {
    key: "T"
    value {
      type: DT_FLOAT
    }
  }
  attr {
    key: "_class"
    value {
      list {
        s: "loc:@Variable_8"
      }
    }
  }
}
node {
  name: "Variable_9/Adam/Initializer/zeros"
  op: "Const"
  attr {
    key: "_class"
    value {
      list {
        s: "loc:@Variable_9"
      }
    }
  }
  attr {
    key: "dtype"
    value {
      type: DT_FLOAT
    }
  }
  attr {
    key: "value"
    value {
      tensor {
        dtype: DT_FLOAT
        tensor_shape {
          dim {
            size: 70
          }
        }
        float_val: 0.0
      }
    }
  }
}
node {
  name: "Variable_9/Adam"
  op: "VariableV2"
  attr {
    key: "_class"
    value {
      list {
        s: "loc:@Variable_9"
      }
    }
  }
  attr {
    key: "container"
    value {
      s: ""
    }
  }
  attr {
    key: "dtype"
    value {
      type: DT_FLOAT
    }
  }
  attr {
    key: "shape"
    value {
      shape {
        dim {
          size: 70
        }
      }
    }
  }
  attr {
    key: "shared_name"
    value {
      s: ""
    }
  }
}
node {
  name: "Variable_9/Adam/Assign"
  op: "Assign"
  input: "Variable_9/Adam"
  input: "Variable_9/Adam/Initializer/zeros"
  attr {
    key: "T"
    value {
      type: DT_FLOAT
    }
  }
  attr {
    key: "_class"
    value {
      list {
        s: "loc:@Variable_9"
      }
    }
  }
  attr {
    key: "use_locking"
    value {
      b: true
    }
  }
  attr {
    key: "validate_shape"
    value {
      b: true
    }
  }
}
node {
  name: "Variable_9/Adam/read"
  op: "Identity"
  input: "Variable_9/Adam"
  attr {
    key: "T"
    value {
      type: DT_FLOAT
    }
  }
  attr {
    key: "_class"
    value {
      list {
        s: "loc:@Variable_9"
      }
    }
  }
}
node {
  name: "Variable_9/Adam_1/Initializer/zeros"
  op: "Const"
  attr {
    key: "_class"
    value {
      list {
        s: "loc:@Variable_9"
      }
    }
  }
  attr {
    key: "dtype"
    value {
      type: DT_FLOAT
    }
  }
  attr {
    key: "value"
    value {
      tensor {
        dtype: DT_FLOAT
        tensor_shape {
          dim {
            size: 70
          }
        }
        float_val: 0.0
      }
    }
  }
}
node {
  name: "Variable_9/Adam_1"
  op: "VariableV2"
  attr {
    key: "_class"
    value {
      list {
        s: "loc:@Variable_9"
      }
    }
  }
  attr {
    key: "container"
    value {
      s: ""
    }
  }
  attr {
    key: "dtype"
    value {
      type: DT_FLOAT
    }
  }
  attr {
    key: "shape"
    value {
      shape {
        dim {
          size: 70
        }
      }
    }
  }
  attr {
    key: "shared_name"
    value {
      s: ""
    }
  }
}
node {
  name: "Variable_9/Adam_1/Assign"
  op: "Assign"
  input: "Variable_9/Adam_1"
  input: "Variable_9/Adam_1/Initializer/zeros"
  attr {
    key: "T"
    value {
      type: DT_FLOAT
    }
  }
  attr {
    key: "_class"
    value {
      list {
        s: "loc:@Variable_9"
      }
    }
  }
  attr {
    key: "use_locking"
    value {
      b: true
    }
  }
  attr {
    key: "validate_shape"
    value {
      b: true
    }
  }
}
node {
  name: "Variable_9/Adam_1/read"
  op: "Identity"
  input: "Variable_9/Adam_1"
  attr {
    key: "T"
    value {
      type: DT_FLOAT
    }
  }
  attr {
    key: "_class"
    value {
      list {
        s: "loc:@Variable_9"
      }
    }
  }
}
node {
  name: "Variable_10/Adam/Initializer/zeros"
  op: "Const"
  attr {
    key: "_class"
    value {
      list {
        s: "loc:@Variable_10"
      }
    }
  }
  attr {
    key: "dtype"
    value {
      type: DT_FLOAT
    }
  }
  attr {
    key: "value"
    value {
      tensor {
        dtype: DT_FLOAT
        tensor_shape {
          dim {
            size: 64
          }
        }
        float_val: 0.0
      }
    }
  }
}
node {
  name: "Variable_10/Adam"
  op: "VariableV2"
  attr {
    key: "_class"
    value {
      list {
        s: "loc:@Variable_10"
      }
    }
  }
  attr {
    key: "container"
    value {
      s: ""
    }
  }
  attr {
    key: "dtype"
    value {
      type: DT_FLOAT
    }
  }
  attr {
    key: "shape"
    value {
      shape {
        dim {
          size: 64
        }
      }
    }
  }
  attr {
    key: "shared_name"
    value {
      s: ""
    }
  }
}
node {
  name: "Variable_10/Adam/Assign"
  op: "Assign"
  input: "Variable_10/Adam"
  input: "Variable_10/Adam/Initializer/zeros"
  attr {
    key: "T"
    value {
      type: DT_FLOAT
    }
  }
  attr {
    key: "_class"
    value {
      list {
        s: "loc:@Variable_10"
      }
    }
  }
  attr {
    key: "use_locking"
    value {
      b: true
    }
  }
  attr {
    key: "validate_shape"
    value {
      b: true
    }
  }
}
node {
  name: "Variable_10/Adam/read"
  op: "Identity"
  input: "Variable_10/Adam"
  attr {
    key: "T"
    value {
      type: DT_FLOAT
    }
  }
  attr {
    key: "_class"
    value {
      list {
        s: "loc:@Variable_10"
      }
    }
  }
}
node {
  name: "Variable_10/Adam_1/Initializer/zeros"
  op: "Const"
  attr {
    key: "_class"
    value {
      list {
        s: "loc:@Variable_10"
      }
    }
  }
  attr {
    key: "dtype"
    value {
      type: DT_FLOAT
    }
  }
  attr {
    key: "value"
    value {
      tensor {
        dtype: DT_FLOAT
        tensor_shape {
          dim {
            size: 64
          }
        }
        float_val: 0.0
      }
    }
  }
}
node {
  name: "Variable_10/Adam_1"
  op: "VariableV2"
  attr {
    key: "_class"
    value {
      list {
        s: "loc:@Variable_10"
      }
    }
  }
  attr {
    key: "container"
    value {
      s: ""
    }
  }
  attr {
    key: "dtype"
    value {
      type: DT_FLOAT
    }
  }
  attr {
    key: "shape"
    value {
      shape {
        dim {
          size: 64
        }
      }
    }
  }
  attr {
    key: "shared_name"
    value {
      s: ""
    }
  }
}
node {
  name: "Variable_10/Adam_1/Assign"
  op: "Assign"
  input: "Variable_10/Adam_1"
  input: "Variable_10/Adam_1/Initializer/zeros"
  attr {
    key: "T"
    value {
      type: DT_FLOAT
    }
  }
  attr {
    key: "_class"
    value {
      list {
        s: "loc:@Variable_10"
      }
    }
  }
  attr {
    key: "use_locking"
    value {
      b: true
    }
  }
  attr {
    key: "validate_shape"
    value {
      b: true
    }
  }
}
node {
  name: "Variable_10/Adam_1/read"
  op: "Identity"
  input: "Variable_10/Adam_1"
  attr {
    key: "T"
    value {
      type: DT_FLOAT
    }
  }
  attr {
    key: "_class"
    value {
      list {
        s: "loc:@Variable_10"
      }
    }
  }
}
node {
  name: "Variable_11/Adam/Initializer/zeros"
  op: "Const"
  attr {
    key: "_class"
    value {
      list {
        s: "loc:@Variable_11"
      }
    }
  }
  attr {
    key: "dtype"
    value {
      type: DT_FLOAT
    }
  }
  attr {
    key: "value"
    value {
      tensor {
        dtype: DT_FLOAT
        tensor_shape {
          dim {
            size: 32
          }
        }
        float_val: 0.0
      }
    }
  }
}
node {
  name: "Variable_11/Adam"
  op: "VariableV2"
  attr {
    key: "_class"
    value {
      list {
        s: "loc:@Variable_11"
      }
    }
  }
  attr {
    key: "container"
    value {
      s: ""
    }
  }
  attr {
    key: "dtype"
    value {
      type: DT_FLOAT
    }
  }
  attr {
    key: "shape"
    value {
      shape {
        dim {
          size: 32
        }
      }
    }
  }
  attr {
    key: "shared_name"
    value {
      s: ""
    }
  }
}
node {
  name: "Variable_11/Adam/Assign"
  op: "Assign"
  input: "Variable_11/Adam"
  input: "Variable_11/Adam/Initializer/zeros"
  attr {
    key: "T"
    value {
      type: DT_FLOAT
    }
  }
  attr {
    key: "_class"
    value {
      list {
        s: "loc:@Variable_11"
      }
    }
  }
  attr {
    key: "use_locking"
    value {
      b: true
    }
  }
  attr {
    key: "validate_shape"
    value {
      b: true
    }
  }
}
node {
  name: "Variable_11/Adam/read"
  op: "Identity"
  input: "Variable_11/Adam"
  attr {
    key: "T"
    value {
      type: DT_FLOAT
    }
  }
  attr {
    key: "_class"
    value {
      list {
        s: "loc:@Variable_11"
      }
    }
  }
}
node {
  name: "Variable_11/Adam_1/Initializer/zeros"
  op: "Const"
  attr {
    key: "_class"
    value {
      list {
        s: "loc:@Variable_11"
      }
    }
  }
  attr {
    key: "dtype"
    value {
      type: DT_FLOAT
    }
  }
  attr {
    key: "value"
    value {
      tensor {
        dtype: DT_FLOAT
        tensor_shape {
          dim {
            size: 32
          }
        }
        float_val: 0.0
      }
    }
  }
}
node {
  name: "Variable_11/Adam_1"
  op: "VariableV2"
  attr {
    key: "_class"
    value {
      list {
        s: "loc:@Variable_11"
      }
    }
  }
  attr {
    key: "container"
    value {
      s: ""
    }
  }
  attr {
    key: "dtype"
    value {
      type: DT_FLOAT
    }
  }
  attr {
    key: "shape"
    value {
      shape {
        dim {
          size: 32
        }
      }
    }
  }
  attr {
    key: "shared_name"
    value {
      s: ""
    }
  }
}
node {
  name: "Variable_11/Adam_1/Assign"
  op: "Assign"
  input: "Variable_11/Adam_1"
  input: "Variable_11/Adam_1/Initializer/zeros"
  attr {
    key: "T"
    value {
      type: DT_FLOAT
    }
  }
  attr {
    key: "_class"
    value {
      list {
        s: "loc:@Variable_11"
      }
    }
  }
  attr {
    key: "use_locking"
    value {
      b: true
    }
  }
  attr {
    key: "validate_shape"
    value {
      b: true
    }
  }
}
node {
  name: "Variable_11/Adam_1/read"
  op: "Identity"
  input: "Variable_11/Adam_1"
  attr {
    key: "T"
    value {
      type: DT_FLOAT
    }
  }
  attr {
    key: "_class"
    value {
      list {
        s: "loc:@Variable_11"
      }
    }
  }
}
node {
  name: "Variable_12/Adam/Initializer/zeros"
  op: "Const"
  attr {
    key: "_class"
    value {
      list {
        s: "loc:@Variable_12"
      }
    }
  }
  attr {
    key: "dtype"
    value {
      type: DT_FLOAT
    }
  }
  attr {
    key: "value"
    value {
      tensor {
        dtype: DT_FLOAT
        tensor_shape {
          dim {
            size: 16
          }
        }
        float_val: 0.0
      }
    }
  }
}
node {
  name: "Variable_12/Adam"
  op: "VariableV2"
  attr {
    key: "_class"
    value {
      list {
        s: "loc:@Variable_12"
      }
    }
  }
  attr {
    key: "container"
    value {
      s: ""
    }
  }
  attr {
    key: "dtype"
    value {
      type: DT_FLOAT
    }
  }
  attr {
    key: "shape"
    value {
      shape {
        dim {
          size: 16
        }
      }
    }
  }
  attr {
    key: "shared_name"
    value {
      s: ""
    }
  }
}
node {
  name: "Variable_12/Adam/Assign"
  op: "Assign"
  input: "Variable_12/Adam"
  input: "Variable_12/Adam/Initializer/zeros"
  attr {
    key: "T"
    value {
      type: DT_FLOAT
    }
  }
  attr {
    key: "_class"
    value {
      list {
        s: "loc:@Variable_12"
      }
    }
  }
  attr {
    key: "use_locking"
    value {
      b: true
    }
  }
  attr {
    key: "validate_shape"
    value {
      b: true
    }
  }
}
node {
  name: "Variable_12/Adam/read"
  op: "Identity"
  input: "Variable_12/Adam"
  attr {
    key: "T"
    value {
      type: DT_FLOAT
    }
  }
  attr {
    key: "_class"
    value {
      list {
        s: "loc:@Variable_12"
      }
    }
  }
}
node {
  name: "Variable_12/Adam_1/Initializer/zeros"
  op: "Const"
  attr {
    key: "_class"
    value {
      list {
        s: "loc:@Variable_12"
      }
    }
  }
  attr {
    key: "dtype"
    value {
      type: DT_FLOAT
    }
  }
  attr {
    key: "value"
    value {
      tensor {
        dtype: DT_FLOAT
        tensor_shape {
          dim {
            size: 16
          }
        }
        float_val: 0.0
      }
    }
  }
}
node {
  name: "Variable_12/Adam_1"
  op: "VariableV2"
  attr {
    key: "_class"
    value {
      list {
        s: "loc:@Variable_12"
      }
    }
  }
  attr {
    key: "container"
    value {
      s: ""
    }
  }
  attr {
    key: "dtype"
    value {
      type: DT_FLOAT
    }
  }
  attr {
    key: "shape"
    value {
      shape {
        dim {
          size: 16
        }
      }
    }
  }
  attr {
    key: "shared_name"
    value {
      s: ""
    }
  }
}
node {
  name: "Variable_12/Adam_1/Assign"
  op: "Assign"
  input: "Variable_12/Adam_1"
  input: "Variable_12/Adam_1/Initializer/zeros"
  attr {
    key: "T"
    value {
      type: DT_FLOAT
    }
  }
  attr {
    key: "_class"
    value {
      list {
        s: "loc:@Variable_12"
      }
    }
  }
  attr {
    key: "use_locking"
    value {
      b: true
    }
  }
  attr {
    key: "validate_shape"
    value {
      b: true
    }
  }
}
node {
  name: "Variable_12/Adam_1/read"
  op: "Identity"
  input: "Variable_12/Adam_1"
  attr {
    key: "T"
    value {
      type: DT_FLOAT
    }
  }
  attr {
    key: "_class"
    value {
      list {
        s: "loc:@Variable_12"
      }
    }
  }
}
node {
  name: "Variable_13/Adam/Initializer/zeros"
  op: "Const"
  attr {
    key: "_class"
    value {
      list {
        s: "loc:@Variable_13"
      }
    }
  }
  attr {
    key: "dtype"
    value {
      type: DT_FLOAT
    }
  }
  attr {
    key: "value"
    value {
      tensor {
        dtype: DT_FLOAT
        tensor_shape {
          dim {
            size: 8
          }
        }
        float_val: 0.0
      }
    }
  }
}
node {
  name: "Variable_13/Adam"
  op: "VariableV2"
  attr {
    key: "_class"
    value {
      list {
        s: "loc:@Variable_13"
      }
    }
  }
  attr {
    key: "container"
    value {
      s: ""
    }
  }
  attr {
    key: "dtype"
    value {
      type: DT_FLOAT
    }
  }
  attr {
    key: "shape"
    value {
      shape {
        dim {
          size: 8
        }
      }
    }
  }
  attr {
    key: "shared_name"
    value {
      s: ""
    }
  }
}
node {
  name: "Variable_13/Adam/Assign"
  op: "Assign"
  input: "Variable_13/Adam"
  input: "Variable_13/Adam/Initializer/zeros"
  attr {
    key: "T"
    value {
      type: DT_FLOAT
    }
  }
  attr {
    key: "_class"
    value {
      list {
        s: "loc:@Variable_13"
      }
    }
  }
  attr {
    key: "use_locking"
    value {
      b: true
    }
  }
  attr {
    key: "validate_shape"
    value {
      b: true
    }
  }
}
node {
  name: "Variable_13/Adam/read"
  op: "Identity"
  input: "Variable_13/Adam"
  attr {
    key: "T"
    value {
      type: DT_FLOAT
    }
  }
  attr {
    key: "_class"
    value {
      list {
        s: "loc:@Variable_13"
      }
    }
  }
}
node {
  name: "Variable_13/Adam_1/Initializer/zeros"
  op: "Const"
  attr {
    key: "_class"
    value {
      list {
        s: "loc:@Variable_13"
      }
    }
  }
  attr {
    key: "dtype"
    value {
      type: DT_FLOAT
    }
  }
  attr {
    key: "value"
    value {
      tensor {
        dtype: DT_FLOAT
        tensor_shape {
          dim {
            size: 8
          }
        }
        float_val: 0.0
      }
    }
  }
}
node {
  name: "Variable_13/Adam_1"
  op: "VariableV2"
  attr {
    key: "_class"
    value {
      list {
        s: "loc:@Variable_13"
      }
    }
  }
  attr {
    key: "container"
    value {
      s: ""
    }
  }
  attr {
    key: "dtype"
    value {
      type: DT_FLOAT
    }
  }
  attr {
    key: "shape"
    value {
      shape {
        dim {
          size: 8
        }
      }
    }
  }
  attr {
    key: "shared_name"
    value {
      s: ""
    }
  }
}
node {
  name: "Variable_13/Adam_1/Assign"
  op: "Assign"
  input: "Variable_13/Adam_1"
  input: "Variable_13/Adam_1/Initializer/zeros"
  attr {
    key: "T"
    value {
      type: DT_FLOAT
    }
  }
  attr {
    key: "_class"
    value {
      list {
        s: "loc:@Variable_13"
      }
    }
  }
  attr {
    key: "use_locking"
    value {
      b: true
    }
  }
  attr {
    key: "validate_shape"
    value {
      b: true
    }
  }
}
node {
  name: "Variable_13/Adam_1/read"
  op: "Identity"
  input: "Variable_13/Adam_1"
  attr {
    key: "T"
    value {
      type: DT_FLOAT
    }
  }
  attr {
    key: "_class"
    value {
      list {
        s: "loc:@Variable_13"
      }
    }
  }
}
node {
  name: "Adam/learning_rate"
  op: "Const"
  attr {
    key: "dtype"
    value {
      type: DT_FLOAT
    }
  }
  attr {
    key: "value"
    value {
      tensor {
        dtype: DT_FLOAT
        tensor_shape {
        }
        float_val: 0.0010000000474974513
      }
    }
  }
}
node {
  name: "Adam/beta1"
  op: "Const"
  attr {
    key: "dtype"
    value {
      type: DT_FLOAT
    }
  }
  attr {
    key: "value"
    value {
      tensor {
        dtype: DT_FLOAT
        tensor_shape {
        }
        float_val: 0.8999999761581421
      }
    }
  }
}
node {
  name: "Adam/beta2"
  op: "Const"
  attr {
    key: "dtype"
    value {
      type: DT_FLOAT
    }
  }
  attr {
    key: "value"
    value {
      tensor {
        dtype: DT_FLOAT
        tensor_shape {
        }
        float_val: 0.9990000128746033
      }
    }
  }
}
node {
  name: "Adam/epsilon"
  op: "Const"
  attr {
    key: "dtype"
    value {
      type: DT_FLOAT
    }
  }
  attr {
    key: "value"
    value {
      tensor {
        dtype: DT_FLOAT
        tensor_shape {
        }
        float_val: 9.99999993922529e-09
      }
    }
  }
}
node {
  name: "Adam/update_Variable_4/ApplyAdam"
  op: "ApplyAdam"
  input: "Variable_4"
  input: "Variable_4/Adam"
  input: "Variable_4/Adam_1"
  input: "beta1_power/read"
  input: "beta2_power/read"
  input: "Adam/learning_rate"
  input: "Adam/beta1"
  input: "Adam/beta2"
  input: "Adam/epsilon"
  input: "gradients/MatMul_grad/tuple/control_dependency_1"
  attr {
    key: "T"
    value {
      type: DT_FLOAT
    }
  }
  attr {
    key: "_class"
    value {
      list {
        s: "loc:@Variable_4"
      }
    }
  }
  attr {
    key: "use_locking"
    value {
      b: false
    }
  }
  attr {
    key: "use_nesterov"
    value {
      b: false
    }
  }
}
node {
  name: "Adam/update_Variable_5/ApplyAdam"
  op: "ApplyAdam"
  input: "Variable_5"
  input: "Variable_5/Adam"
  input: "Variable_5/Adam_1"
  input: "beta1_power/read"
  input: "beta2_power/read"
  input: "Adam/learning_rate"
  input: "Adam/beta1"
  input: "Adam/beta2"
  input: "Adam/epsilon"
  input: "gradients/MatMul_1_grad/tuple/control_dependency_1"
  attr {
    key: "T"
    value {
      type: DT_FLOAT
    }
  }
  attr {
    key: "_class"
    value {
      list {
        s: "loc:@Variable_5"
      }
    }
  }
  attr {
    key: "use_locking"
    value {
      b: false
    }
  }
  attr {
    key: "use_nesterov"
    value {
      b: false
    }
  }
}
node {
  name: "Adam/update_Variable_6/ApplyAdam"
  op: "ApplyAdam"
  input: "Variable_6"
  input: "Variable_6/Adam"
  input: "Variable_6/Adam_1"
  input: "beta1_power/read"
  input: "beta2_power/read"
  input: "Adam/learning_rate"
  input: "Adam/beta1"
  input: "Adam/beta2"
  input: "Adam/epsilon"
  input: "gradients/MatMul_2_grad/tuple/control_dependency_1"
  attr {
    key: "T"
    value {
      type: DT_FLOAT
    }
  }
  attr {
    key: "_class"
    value {
      list {
        s: "loc:@Variable_6"
      }
    }
  }
  attr {
    key: "use_locking"
    value {
      b: false
    }
  }
  attr {
    key: "use_nesterov"
    value {
      b: false
    }
  }
}
node {
  name: "Adam/update_Variable_7/ApplyAdam"
  op: "ApplyAdam"
  input: "Variable_7"
  input: "Variable_7/Adam"
  input: "Variable_7/Adam_1"
  input: "beta1_power/read"
  input: "beta2_power/read"
  input: "Adam/learning_rate"
  input: "Adam/beta1"
  input: "Adam/beta2"
  input: "Adam/epsilon"
  input: "gradients/MatMul_3_grad/tuple/control_dependency_1"
  attr {
    key: "T"
    value {
      type: DT_FLOAT
    }
  }
  attr {
    key: "_class"
    value {
      list {
        s: "loc:@Variable_7"
      }
    }
  }
  attr {
    key: "use_locking"
    value {
      b: false
    }
  }
  attr {
    key: "use_nesterov"
    value {
      b: false
    }
  }
}
node {
  name: "Adam/update_Variable_8/ApplyAdam"
  op: "ApplyAdam"
  input: "Variable_8"
  input: "Variable_8/Adam"
  input: "Variable_8/Adam_1"
  input: "beta1_power/read"
  input: "beta2_power/read"
  input: "Adam/learning_rate"
  input: "Adam/beta1"
  input: "Adam/beta2"
  input: "Adam/epsilon"
  input: "gradients/MatMul_4_grad/tuple/control_dependency_1"
  attr {
    key: "T"
    value {
      type: DT_FLOAT
    }
  }
  attr {
    key: "_class"
    value {
      list {
        s: "loc:@Variable_8"
      }
    }
  }
  attr {
    key: "use_locking"
    value {
      b: false
    }
  }
  attr {
    key: "use_nesterov"
    value {
      b: false
    }
  }
}
node {
  name: "Adam/update_Variable_9/ApplyAdam"
  op: "ApplyAdam"
  input: "Variable_9"
  input: "Variable_9/Adam"
  input: "Variable_9/Adam_1"
  input: "beta1_power/read"
  input: "beta2_power/read"
  input: "Adam/learning_rate"
  input: "Adam/beta1"
  input: "Adam/beta2"
  input: "Adam/epsilon"
  input: "gradients/Add_grad/tuple/control_dependency_1"
  attr {
    key: "T"
    value {
      type: DT_FLOAT
    }
  }
  attr {
    key: "_class"
    value {
      list {
        s: "loc:@Variable_9"
      }
    }
  }
  attr {
    key: "use_locking"
    value {
      b: false
    }
  }
  attr {
    key: "use_nesterov"
    value {
      b: false
    }
  }
}
node {
  name: "Adam/update_Variable_10/ApplyAdam"
  op: "ApplyAdam"
  input: "Variable_10"
  input: "Variable_10/Adam"
  input: "Variable_10/Adam_1"
  input: "beta1_power/read"
  input: "beta2_power/read"
  input: "Adam/learning_rate"
  input: "Adam/beta1"
  input: "Adam/beta2"
  input: "Adam/epsilon"
  input: "gradients/Add_1_grad/tuple/control_dependency_1"
  attr {
    key: "T"
    value {
      type: DT_FLOAT
    }
  }
  attr {
    key: "_class"
    value {
      list {
        s: "loc:@Variable_10"
      }
    }
  }
  attr {
    key: "use_locking"
    value {
      b: false
    }
  }
  attr {
    key: "use_nesterov"
    value {
      b: false
    }
  }
}
node {
  name: "Adam/update_Variable_11/ApplyAdam"
  op: "ApplyAdam"
  input: "Variable_11"
  input: "Variable_11/Adam"
  input: "Variable_11/Adam_1"
  input: "beta1_power/read"
  input: "beta2_power/read"
  input: "Adam/learning_rate"
  input: "Adam/beta1"
  input: "Adam/beta2"
  input: "Adam/epsilon"
  input: "gradients/Add_2_grad/tuple/control_dependency_1"
  attr {
    key: "T"
    value {
      type: DT_FLOAT
    }
  }
  attr {
    key: "_class"
    value {
      list {
        s: "loc:@Variable_11"
      }
    }
  }
  attr {
    key: "use_locking"
    value {
      b: false
    }
  }
  attr {
    key: "use_nesterov"
    value {
      b: false
    }
  }
}
node {
  name: "Adam/update_Variable_12/ApplyAdam"
  op: "ApplyAdam"
  input: "Variable_12"
  input: "Variable_12/Adam"
  input: "Variable_12/Adam_1"
  input: "beta1_power/read"
  input: "beta2_power/read"
  input: "Adam/learning_rate"
  input: "Adam/beta1"
  input: "Adam/beta2"
  input: "Adam/epsilon"
  input: "gradients/Add_3_grad/tuple/control_dependency_1"
  attr {
    key: "T"
    value {
      type: DT_FLOAT
    }
  }
  attr {
    key: "_class"
    value {
      list {
        s: "loc:@Variable_12"
      }
    }
  }
  attr {
    key: "use_locking"
    value {
      b: false
    }
  }
  attr {
    key: "use_nesterov"
    value {
      b: false
    }
  }
}
node {
  name: "Adam/update_Variable_13/ApplyAdam"
  op: "ApplyAdam"
  input: "Variable_13"
  input: "Variable_13/Adam"
  input: "Variable_13/Adam_1"
  input: "beta1_power/read"
  input: "beta2_power/read"
  input: "Adam/learning_rate"
  input: "Adam/beta1"
  input: "Adam/beta2"
  input: "Adam/epsilon"
  input: "gradients/Add_4_grad/tuple/control_dependency_1"
  attr {
    key: "T"
    value {
      type: DT_FLOAT
    }
  }
  attr {
    key: "_class"
    value {
      list {
        s: "loc:@Variable_13"
      }
    }
  }
  attr {
    key: "use_locking"
    value {
      b: false
    }
  }
  attr {
    key: "use_nesterov"
    value {
      b: false
    }
  }
}
node {
  name: "Adam/mul"
  op: "Mul"
  input: "beta1_power/read"
  input: "Adam/beta1"
  input: "^Adam/update_Variable_10/ApplyAdam"
  input: "^Adam/update_Variable_11/ApplyAdam"
  input: "^Adam/update_Variable_12/ApplyAdam"
  input: "^Adam/update_Variable_13/ApplyAdam"
  input: "^Adam/update_Variable_4/ApplyAdam"
  input: "^Adam/update_Variable_5/ApplyAdam"
  input: "^Adam/update_Variable_6/ApplyAdam"
  input: "^Adam/update_Variable_7/ApplyAdam"
  input: "^Adam/update_Variable_8/ApplyAdam"
  input: "^Adam/update_Variable_9/ApplyAdam"
  attr {
    key: "T"
    value {
      type: DT_FLOAT
    }
  }
  attr {
    key: "_class"
    value {
      list {
        s: "loc:@Variable_10"
      }
    }
  }
}
node {
  name: "Adam/Assign"
  op: "Assign"
  input: "beta1_power"
  input: "Adam/mul"
  attr {
    key: "T"
    value {
      type: DT_FLOAT
    }
  }
  attr {
    key: "_class"
    value {
      list {
        s: "loc:@Variable_10"
      }
    }
  }
  attr {
    key: "use_locking"
    value {
      b: false
    }
  }
  attr {
    key: "validate_shape"
    value {
      b: true
    }
  }
}
node {
  name: "Adam/mul_1"
  op: "Mul"
  input: "beta2_power/read"
  input: "Adam/beta2"
  input: "^Adam/update_Variable_10/ApplyAdam"
  input: "^Adam/update_Variable_11/ApplyAdam"
  input: "^Adam/update_Variable_12/ApplyAdam"
  input: "^Adam/update_Variable_13/ApplyAdam"
  input: "^Adam/update_Variable_4/ApplyAdam"
  input: "^Adam/update_Variable_5/ApplyAdam"
  input: "^Adam/update_Variable_6/ApplyAdam"
  input: "^Adam/update_Variable_7/ApplyAdam"
  input: "^Adam/update_Variable_8/ApplyAdam"
  input: "^Adam/update_Variable_9/ApplyAdam"
  attr {
    key: "T"
    value {
      type: DT_FLOAT
    }
  }
  attr {
    key: "_class"
    value {
      list {
        s: "loc:@Variable_10"
      }
    }
  }
}
node {
  name: "Adam/Assign_1"
  op: "Assign"
  input: "beta2_power"
  input: "Adam/mul_1"
  attr {
    key: "T"
    value {
      type: DT_FLOAT
    }
  }
  attr {
    key: "_class"
    value {
      list {
        s: "loc:@Variable_10"
      }
    }
  }
  attr {
    key: "use_locking"
    value {
      b: false
    }
  }
  attr {
    key: "validate_shape"
    value {
      b: true
    }
  }
}
node {
  name: "Adam"
  op: "NoOp"
  input: "^Adam/Assign"
  input: "^Adam/Assign_1"
  input: "^Adam/update_Variable_10/ApplyAdam"
  input: "^Adam/update_Variable_11/ApplyAdam"
  input: "^Adam/update_Variable_12/ApplyAdam"
  input: "^Adam/update_Variable_13/ApplyAdam"
  input: "^Adam/update_Variable_4/ApplyAdam"
  input: "^Adam/update_Variable_5/ApplyAdam"
  input: "^Adam/update_Variable_6/ApplyAdam"
  input: "^Adam/update_Variable_7/ApplyAdam"
  input: "^Adam/update_Variable_8/ApplyAdam"
  input: "^Adam/update_Variable_9/ApplyAdam"
}
node {
  name: "init"
  op: "NoOp"
  input: "^Variable/Assign"
  input: "^Variable_1/Assign"
  input: "^Variable_10/Adam/Assign"
  input: "^Variable_10/Adam_1/Assign"
  input: "^Variable_10/Assign"
  input: "^Variable_11/Adam/Assign"
  input: "^Variable_11/Adam_1/Assign"
  input: "^Variable_11/Assign"
  input: "^Variable_12/Adam/Assign"
  input: "^Variable_12/Adam_1/Assign"
  input: "^Variable_12/Assign"
  input: "^Variable_13/Adam/Assign"
  input: "^Variable_13/Adam_1/Assign"
  input: "^Variable_13/Assign"
  input: "^Variable_2/Assign"
  input: "^Variable_3/Assign"
  input: "^Variable_4/Adam/Assign"
  input: "^Variable_4/Adam_1/Assign"
  input: "^Variable_4/Assign"
  input: "^Variable_5/Adam/Assign"
  input: "^Variable_5/Adam_1/Assign"
  input: "^Variable_5/Assign"
  input: "^Variable_6/Adam/Assign"
  input: "^Variable_6/Adam_1/Assign"
  input: "^Variable_6/Assign"
  input: "^Variable_7/Adam/Assign"
  input: "^Variable_7/Adam_1/Assign"
  input: "^Variable_7/Assign"
  input: "^Variable_8/Adam/Assign"
  input: "^Variable_8/Adam_1/Assign"
  input: "^Variable_8/Assign"
  input: "^Variable_9/Adam/Assign"
  input: "^Variable_9/Adam_1/Assign"
  input: "^Variable_9/Assign"
  input: "^beta1_power/Assign"
  input: "^beta2_power/Assign"
}
node {
  name: "save/Const"
  op: "Const"
  attr {
    key: "dtype"
    value {
      type: DT_STRING
    }
  }
  attr {
    key: "value"
    value {
      tensor {
        dtype: DT_STRING
        tensor_shape {
        }
        string_val: "model"
      }
    }
  }
}
node {
  name: "save/SaveV2/tensor_names"
  op: "Const"
  attr {
    key: "dtype"
    value {
      type: DT_STRING
    }
  }
  attr {
    key: "value"
    value {
      tensor {
        dtype: DT_STRING
        tensor_shape {
          dim {
            size: 36
          }
        }
        string_val: "Variable"
        string_val: "Variable_1"
        string_val: "Variable_10"
        string_val: "Variable_10/Adam"
        string_val: "Variable_10/Adam_1"
        string_val: "Variable_11"
        string_val: "Variable_11/Adam"
        string_val: "Variable_11/Adam_1"
        string_val: "Variable_12"
        string_val: "Variable_12/Adam"
        string_val: "Variable_12/Adam_1"
        string_val: "Variable_13"
        string_val: "Variable_13/Adam"
        string_val: "Variable_13/Adam_1"
        string_val: "Variable_2"
        string_val: "Variable_3"
        string_val: "Variable_4"
        string_val: "Variable_4/Adam"
        string_val: "Variable_4/Adam_1"
        string_val: "Variable_5"
        string_val: "Variable_5/Adam"
        string_val: "Variable_5/Adam_1"
        string_val: "Variable_6"
        string_val: "Variable_6/Adam"
        string_val: "Variable_6/Adam_1"
        string_val: "Variable_7"
        string_val: "Variable_7/Adam"
        string_val: "Variable_7/Adam_1"
        string_val: "Variable_8"
        string_val: "Variable_8/Adam"
        string_val: "Variable_8/Adam_1"
        string_val: "Variable_9"
        string_val: "Variable_9/Adam"
        string_val: "Variable_9/Adam_1"
        string_val: "beta1_power"
        string_val: "beta2_power"
      }
    }
  }
}
node {
  name: "save/SaveV2/shape_and_slices"
  op: "Const"
  attr {
    key: "dtype"
    value {
      type: DT_STRING
    }
  }
  attr {
    key: "value"
    value {
      tensor {
        dtype: DT_STRING
        tensor_shape {
          dim {
            size: 36
          }
        }
        string_val: ""
        string_val: ""
        string_val: ""
        string_val: ""
        string_val: ""
        string_val: ""
        string_val: ""
        string_val: ""
        string_val: ""
        string_val: ""
        string_val: ""
        string_val: ""
        string_val: ""
        string_val: ""
        string_val: ""
        string_val: ""
        string_val: ""
        string_val: ""
        string_val: ""
        string_val: ""
        string_val: ""
        string_val: ""
        string_val: ""
        string_val: ""
        string_val: ""
        string_val: ""
        string_val: ""
        string_val: ""
        string_val: ""
        string_val: ""
        string_val: ""
        string_val: ""
        string_val: ""
        string_val: ""
        string_val: ""
        string_val: ""
      }
    }
  }
}
node {
  name: "save/SaveV2"
  op: "SaveV2"
  input: "save/Const"
  input: "save/SaveV2/tensor_names"
  input: "save/SaveV2/shape_and_slices"
  input: "Variable"
  input: "Variable_1"
  input: "Variable_10"
  input: "Variable_10/Adam"
  input: "Variable_10/Adam_1"
  input: "Variable_11"
  input: "Variable_11/Adam"
  input: "Variable_11/Adam_1"
  input: "Variable_12"
  input: "Variable_12/Adam"
  input: "Variable_12/Adam_1"
  input: "Variable_13"
  input: "Variable_13/Adam"
  input: "Variable_13/Adam_1"
  input: "Variable_2"
  input: "Variable_3"
  input: "Variable_4"
  input: "Variable_4/Adam"
  input: "Variable_4/Adam_1"
  input: "Variable_5"
  input: "Variable_5/Adam"
  input: "Variable_5/Adam_1"
  input: "Variable_6"
  input: "Variable_6/Adam"
  input: "Variable_6/Adam_1"
  input: "Variable_7"
  input: "Variable_7/Adam"
  input: "Variable_7/Adam_1"
  input: "Variable_8"
  input: "Variable_8/Adam"
  input: "Variable_8/Adam_1"
  input: "Variable_9"
  input: "Variable_9/Adam"
  input: "Variable_9/Adam_1"
  input: "beta1_power"
  input: "beta2_power"
  attr {
    key: "dtypes"
    value {
      list {
        type: DT_FLOAT
        type: DT_FLOAT
        type: DT_FLOAT
        type: DT_FLOAT
        type: DT_FLOAT
        type: DT_FLOAT
        type: DT_FLOAT
        type: DT_FLOAT
        type: DT_FLOAT
        type: DT_FLOAT
        type: DT_FLOAT
        type: DT_FLOAT
        type: DT_FLOAT
        type: DT_FLOAT
        type: DT_FLOAT
        type: DT_FLOAT
        type: DT_FLOAT
        type: DT_FLOAT
        type: DT_FLOAT
        type: DT_FLOAT
        type: DT_FLOAT
        type: DT_FLOAT
        type: DT_FLOAT
        type: DT_FLOAT
        type: DT_FLOAT
        type: DT_FLOAT
        type: DT_FLOAT
        type: DT_FLOAT
        type: DT_FLOAT
        type: DT_FLOAT
        type: DT_FLOAT
        type: DT_FLOAT
        type: DT_FLOAT
        type: DT_FLOAT
        type: DT_FLOAT
        type: DT_FLOAT
      }
    }
  }
}
node {
  name: "save/control_dependency"
  op: "Identity"
  input: "save/Const"
  input: "^save/SaveV2"
  attr {
    key: "T"
    value {
      type: DT_STRING
    }
  }
  attr {
    key: "_class"
    value {
      list {
        s: "loc:@save/Const"
      }
    }
  }
}
node {
  name: "save/RestoreV2/tensor_names"
  op: "Const"
  device: "/device:CPU:0"
  attr {
    key: "dtype"
    value {
      type: DT_STRING
    }
  }
  attr {
    key: "value"
    value {
      tensor {
        dtype: DT_STRING
        tensor_shape {
          dim {
            size: 36
          }
        }
        string_val: "Variable"
        string_val: "Variable_1"
        string_val: "Variable_10"
        string_val: "Variable_10/Adam"
        string_val: "Variable_10/Adam_1"
        string_val: "Variable_11"
        string_val: "Variable_11/Adam"
        string_val: "Variable_11/Adam_1"
        string_val: "Variable_12"
        string_val: "Variable_12/Adam"
        string_val: "Variable_12/Adam_1"
        string_val: "Variable_13"
        string_val: "Variable_13/Adam"
        string_val: "Variable_13/Adam_1"
        string_val: "Variable_2"
        string_val: "Variable_3"
        string_val: "Variable_4"
        string_val: "Variable_4/Adam"
        string_val: "Variable_4/Adam_1"
        string_val: "Variable_5"
        string_val: "Variable_5/Adam"
        string_val: "Variable_5/Adam_1"
        string_val: "Variable_6"
        string_val: "Variable_6/Adam"
        string_val: "Variable_6/Adam_1"
        string_val: "Variable_7"
        string_val: "Variable_7/Adam"
        string_val: "Variable_7/Adam_1"
        string_val: "Variable_8"
        string_val: "Variable_8/Adam"
        string_val: "Variable_8/Adam_1"
        string_val: "Variable_9"
        string_val: "Variable_9/Adam"
        string_val: "Variable_9/Adam_1"
        string_val: "beta1_power"
        string_val: "beta2_power"
      }
    }
  }
}
node {
  name: "save/RestoreV2/shape_and_slices"
  op: "Const"
  device: "/device:CPU:0"
  attr {
    key: "dtype"
    value {
      type: DT_STRING
    }
  }
  attr {
    key: "value"
    value {
      tensor {
        dtype: DT_STRING
        tensor_shape {
          dim {
            size: 36
          }
        }
        string_val: ""
        string_val: ""
        string_val: ""
        string_val: ""
        string_val: ""
        string_val: ""
        string_val: ""
        string_val: ""
        string_val: ""
        string_val: ""
        string_val: ""
        string_val: ""
        string_val: ""
        string_val: ""
        string_val: ""
        string_val: ""
        string_val: ""
        string_val: ""
        string_val: ""
        string_val: ""
        string_val: ""
        string_val: ""
        string_val: ""
        string_val: ""
        string_val: ""
        string_val: ""
        string_val: ""
        string_val: ""
        string_val: ""
        string_val: ""
        string_val: ""
        string_val: ""
        string_val: ""
        string_val: ""
        string_val: ""
        string_val: ""
      }
    }
  }
}
node {
  name: "save/RestoreV2"
  op: "RestoreV2"
  input: "save/Const"
  input: "save/RestoreV2/tensor_names"
  input: "save/RestoreV2/shape_and_slices"
  device: "/device:CPU:0"
  attr {
    key: "dtypes"
    value {
      list {
        type: DT_FLOAT
        type: DT_FLOAT
        type: DT_FLOAT
        type: DT_FLOAT
        type: DT_FLOAT
        type: DT_FLOAT
        type: DT_FLOAT
        type: DT_FLOAT
        type: DT_FLOAT
        type: DT_FLOAT
        type: DT_FLOAT
        type: DT_FLOAT
        type: DT_FLOAT
        type: DT_FLOAT
        type: DT_FLOAT
        type: DT_FLOAT
        type: DT_FLOAT
        type: DT_FLOAT
        type: DT_FLOAT
        type: DT_FLOAT
        type: DT_FLOAT
        type: DT_FLOAT
        type: DT_FLOAT
        type: DT_FLOAT
        type: DT_FLOAT
        type: DT_FLOAT
        type: DT_FLOAT
        type: DT_FLOAT
        type: DT_FLOAT
        type: DT_FLOAT
        type: DT_FLOAT
        type: DT_FLOAT
        type: DT_FLOAT
        type: DT_FLOAT
        type: DT_FLOAT
        type: DT_FLOAT
      }
    }
  }
}
node {
  name: "save/Assign"
  op: "Assign"
  input: "Variable"
  input: "save/RestoreV2"
  attr {
    key: "T"
    value {
      type: DT_FLOAT
    }
  }
  attr {
    key: "_class"
    value {
      list {
        s: "loc:@Variable"
      }
    }
  }
  attr {
    key: "use_locking"
    value {
      b: true
    }
  }
  attr {
    key: "validate_shape"
    value {
      b: true
    }
  }
}
node {
  name: "save/Assign_1"
  op: "Assign"
  input: "Variable_1"
  input: "save/RestoreV2:1"
  attr {
    key: "T"
    value {
      type: DT_FLOAT
    }
  }
  attr {
    key: "_class"
    value {
      list {
        s: "loc:@Variable_1"
      }
    }
  }
  attr {
    key: "use_locking"
    value {
      b: true
    }
  }
  attr {
    key: "validate_shape"
    value {
      b: true
    }
  }
}
node {
  name: "save/Assign_2"
  op: "Assign"
  input: "Variable_10"
  input: "save/RestoreV2:2"
  attr {
    key: "T"
    value {
      type: DT_FLOAT
    }
  }
  attr {
    key: "_class"
    value {
      list {
        s: "loc:@Variable_10"
      }
    }
  }
  attr {
    key: "use_locking"
    value {
      b: true
    }
  }
  attr {
    key: "validate_shape"
    value {
      b: true
    }
  }
}
node {
  name: "save/Assign_3"
  op: "Assign"
  input: "Variable_10/Adam"
  input: "save/RestoreV2:3"
  attr {
    key: "T"
    value {
      type: DT_FLOAT
    }
  }
  attr {
    key: "_class"
    value {
      list {
        s: "loc:@Variable_10"
      }
    }
  }
  attr {
    key: "use_locking"
    value {
      b: true
    }
  }
  attr {
    key: "validate_shape"
    value {
      b: true
    }
  }
}
node {
  name: "save/Assign_4"
  op: "Assign"
  input: "Variable_10/Adam_1"
  input: "save/RestoreV2:4"
  attr {
    key: "T"
    value {
      type: DT_FLOAT
    }
  }
  attr {
    key: "_class"
    value {
      list {
        s: "loc:@Variable_10"
      }
    }
  }
  attr {
    key: "use_locking"
    value {
      b: true
    }
  }
  attr {
    key: "validate_shape"
    value {
      b: true
    }
  }
}
node {
  name: "save/Assign_5"
  op: "Assign"
  input: "Variable_11"
  input: "save/RestoreV2:5"
  attr {
    key: "T"
    value {
      type: DT_FLOAT
    }
  }
  attr {
    key: "_class"
    value {
      list {
        s: "loc:@Variable_11"
      }
    }
  }
  attr {
    key: "use_locking"
    value {
      b: true
    }
  }
  attr {
    key: "validate_shape"
    value {
      b: true
    }
  }
}
node {
  name: "save/Assign_6"
  op: "Assign"
  input: "Variable_11/Adam"
  input: "save/RestoreV2:6"
  attr {
    key: "T"
    value {
      type: DT_FLOAT
    }
  }
  attr {
    key: "_class"
    value {
      list {
        s: "loc:@Variable_11"
      }
    }
  }
  attr {
    key: "use_locking"
    value {
      b: true
    }
  }
  attr {
    key: "validate_shape"
    value {
      b: true
    }
  }
}
node {
  name: "save/Assign_7"
  op: "Assign"
  input: "Variable_11/Adam_1"
  input: "save/RestoreV2:7"
  attr {
    key: "T"
    value {
      type: DT_FLOAT
    }
  }
  attr {
    key: "_class"
    value {
      list {
        s: "loc:@Variable_11"
      }
    }
  }
  attr {
    key: "use_locking"
    value {
      b: true
    }
  }
  attr {
    key: "validate_shape"
    value {
      b: true
    }
  }
}
node {
  name: "save/Assign_8"
  op: "Assign"
  input: "Variable_12"
  input: "save/RestoreV2:8"
  attr {
    key: "T"
    value {
      type: DT_FLOAT
    }
  }
  attr {
    key: "_class"
    value {
      list {
        s: "loc:@Variable_12"
      }
    }
  }
  attr {
    key: "use_locking"
    value {
      b: true
    }
  }
  attr {
    key: "validate_shape"
    value {
      b: true
    }
  }
}
node {
  name: "save/Assign_9"
  op: "Assign"
  input: "Variable_12/Adam"
  input: "save/RestoreV2:9"
  attr {
    key: "T"
    value {
      type: DT_FLOAT
    }
  }
  attr {
    key: "_class"
    value {
      list {
        s: "loc:@Variable_12"
      }
    }
  }
  attr {
    key: "use_locking"
    value {
      b: true
    }
  }
  attr {
    key: "validate_shape"
    value {
      b: true
    }
  }
}
node {
  name: "save/Assign_10"
  op: "Assign"
  input: "Variable_12/Adam_1"
  input: "save/RestoreV2:10"
  attr {
    key: "T"
    value {
      type: DT_FLOAT
    }
  }
  attr {
    key: "_class"
    value {
      list {
        s: "loc:@Variable_12"
      }
    }
  }
  attr {
    key: "use_locking"
    value {
      b: true
    }
  }
  attr {
    key: "validate_shape"
    value {
      b: true
    }
  }
}
node {
  name: "save/Assign_11"
  op: "Assign"
  input: "Variable_13"
  input: "save/RestoreV2:11"
  attr {
    key: "T"
    value {
      type: DT_FLOAT
    }
  }
  attr {
    key: "_class"
    value {
      list {
        s: "loc:@Variable_13"
      }
    }
  }
  attr {
    key: "use_locking"
    value {
      b: true
    }
  }
  attr {
    key: "validate_shape"
    value {
      b: true
    }
  }
}
node {
  name: "save/Assign_12"
  op: "Assign"
  input: "Variable_13/Adam"
  input: "save/RestoreV2:12"
  attr {
    key: "T"
    value {
      type: DT_FLOAT
    }
  }
  attr {
    key: "_class"
    value {
      list {
        s: "loc:@Variable_13"
      }
    }
  }
  attr {
    key: "use_locking"
    value {
      b: true
    }
  }
  attr {
    key: "validate_shape"
    value {
      b: true
    }
  }
}
node {
  name: "save/Assign_13"
  op: "Assign"
  input: "Variable_13/Adam_1"
  input: "save/RestoreV2:13"
  attr {
    key: "T"
    value {
      type: DT_FLOAT
    }
  }
  attr {
    key: "_class"
    value {
      list {
        s: "loc:@Variable_13"
      }
    }
  }
  attr {
    key: "use_locking"
    value {
      b: true
    }
  }
  attr {
    key: "validate_shape"
    value {
      b: true
    }
  }
}
node {
  name: "save/Assign_14"
  op: "Assign"
  input: "Variable_2"
  input: "save/RestoreV2:14"
  attr {
    key: "T"
    value {
      type: DT_FLOAT
    }
  }
  attr {
    key: "_class"
    value {
      list {
        s: "loc:@Variable_2"
      }
    }
  }
  attr {
    key: "use_locking"
    value {
      b: true
    }
  }
  attr {
    key: "validate_shape"
    value {
      b: true
    }
  }
}
node {
  name: "save/Assign_15"
  op: "Assign"
  input: "Variable_3"
  input: "save/RestoreV2:15"
  attr {
    key: "T"
    value {
      type: DT_FLOAT
    }
  }
  attr {
    key: "_class"
    value {
      list {
        s: "loc:@Variable_3"
      }
    }
  }
  attr {
    key: "use_locking"
    value {
      b: true
    }
  }
  attr {
    key: "validate_shape"
    value {
      b: true
    }
  }
}
node {
  name: "save/Assign_16"
  op: "Assign"
  input: "Variable_4"
  input: "save/RestoreV2:16"
  attr {
    key: "T"
    value {
      type: DT_FLOAT
    }
  }
  attr {
    key: "_class"
    value {
      list {
        s: "loc:@Variable_4"
      }
    }
  }
  attr {
    key: "use_locking"
    value {
      b: true
    }
  }
  attr {
    key: "validate_shape"
    value {
      b: true
    }
  }
}
node {
  name: "save/Assign_17"
  op: "Assign"
  input: "Variable_4/Adam"
  input: "save/RestoreV2:17"
  attr {
    key: "T"
    value {
      type: DT_FLOAT
    }
  }
  attr {
    key: "_class"
    value {
      list {
        s: "loc:@Variable_4"
      }
    }
  }
  attr {
    key: "use_locking"
    value {
      b: true
    }
  }
  attr {
    key: "validate_shape"
    value {
      b: true
    }
  }
}
node {
  name: "save/Assign_18"
  op: "Assign"
  input: "Variable_4/Adam_1"
  input: "save/RestoreV2:18"
  attr {
    key: "T"
    value {
      type: DT_FLOAT
    }
  }
  attr {
    key: "_class"
    value {
      list {
        s: "loc:@Variable_4"
      }
    }
  }
  attr {
    key: "use_locking"
    value {
      b: true
    }
  }
  attr {
    key: "validate_shape"
    value {
      b: true
    }
  }
}
node {
  name: "save/Assign_19"
  op: "Assign"
  input: "Variable_5"
  input: "save/RestoreV2:19"
  attr {
    key: "T"
    value {
      type: DT_FLOAT
    }
  }
  attr {
    key: "_class"
    value {
      list {
        s: "loc:@Variable_5"
      }
    }
  }
  attr {
    key: "use_locking"
    value {
      b: true
    }
  }
  attr {
    key: "validate_shape"
    value {
      b: true
    }
  }
}
node {
  name: "save/Assign_20"
  op: "Assign"
  input: "Variable_5/Adam"
  input: "save/RestoreV2:20"
  attr {
    key: "T"
    value {
      type: DT_FLOAT
    }
  }
  attr {
    key: "_class"
    value {
      list {
        s: "loc:@Variable_5"
      }
    }
  }
  attr {
    key: "use_locking"
    value {
      b: true
    }
  }
  attr {
    key: "validate_shape"
    value {
      b: true
    }
  }
}
node {
  name: "save/Assign_21"
  op: "Assign"
  input: "Variable_5/Adam_1"
  input: "save/RestoreV2:21"
  attr {
    key: "T"
    value {
      type: DT_FLOAT
    }
  }
  attr {
    key: "_class"
    value {
      list {
        s: "loc:@Variable_5"
      }
    }
  }
  attr {
    key: "use_locking"
    value {
      b: true
    }
  }
  attr {
    key: "validate_shape"
    value {
      b: true
    }
  }
}
node {
  name: "save/Assign_22"
  op: "Assign"
  input: "Variable_6"
  input: "save/RestoreV2:22"
  attr {
    key: "T"
    value {
      type: DT_FLOAT
    }
  }
  attr {
    key: "_class"
    value {
      list {
        s: "loc:@Variable_6"
      }
    }
  }
  attr {
    key: "use_locking"
    value {
      b: true
    }
  }
  attr {
    key: "validate_shape"
    value {
      b: true
    }
  }
}
node {
  name: "save/Assign_23"
  op: "Assign"
  input: "Variable_6/Adam"
  input: "save/RestoreV2:23"
  attr {
    key: "T"
    value {
      type: DT_FLOAT
    }
  }
  attr {
    key: "_class"
    value {
      list {
        s: "loc:@Variable_6"
      }
    }
  }
  attr {
    key: "use_locking"
    value {
      b: true
    }
  }
  attr {
    key: "validate_shape"
    value {
      b: true
    }
  }
}
node {
  name: "save/Assign_24"
  op: "Assign"
  input: "Variable_6/Adam_1"
  input: "save/RestoreV2:24"
  attr {
    key: "T"
    value {
      type: DT_FLOAT
    }
  }
  attr {
    key: "_class"
    value {
      list {
        s: "loc:@Variable_6"
      }
    }
  }
  attr {
    key: "use_locking"
    value {
      b: true
    }
  }
  attr {
    key: "validate_shape"
    value {
      b: true
    }
  }
}
node {
  name: "save/Assign_25"
  op: "Assign"
  input: "Variable_7"
  input: "save/RestoreV2:25"
  attr {
    key: "T"
    value {
      type: DT_FLOAT
    }
  }
  attr {
    key: "_class"
    value {
      list {
        s: "loc:@Variable_7"
      }
    }
  }
  attr {
    key: "use_locking"
    value {
      b: true
    }
  }
  attr {
    key: "validate_shape"
    value {
      b: true
    }
  }
}
node {
  name: "save/Assign_26"
  op: "Assign"
  input: "Variable_7/Adam"
  input: "save/RestoreV2:26"
  attr {
    key: "T"
    value {
      type: DT_FLOAT
    }
  }
  attr {
    key: "_class"
    value {
      list {
        s: "loc:@Variable_7"
      }
    }
  }
  attr {
    key: "use_locking"
    value {
      b: true
    }
  }
  attr {
    key: "validate_shape"
    value {
      b: true
    }
  }
}
node {
  name: "save/Assign_27"
  op: "Assign"
  input: "Variable_7/Adam_1"
  input: "save/RestoreV2:27"
  attr {
    key: "T"
    value {
      type: DT_FLOAT
    }
  }
  attr {
    key: "_class"
    value {
      list {
        s: "loc:@Variable_7"
      }
    }
  }
  attr {
    key: "use_locking"
    value {
      b: true
    }
  }
  attr {
    key: "validate_shape"
    value {
      b: true
    }
  }
}
node {
  name: "save/Assign_28"
  op: "Assign"
  input: "Variable_8"
  input: "save/RestoreV2:28"
  attr {
    key: "T"
    value {
      type: DT_FLOAT
    }
  }
  attr {
    key: "_class"
    value {
      list {
        s: "loc:@Variable_8"
      }
    }
  }
  attr {
    key: "use_locking"
    value {
      b: true
    }
  }
  attr {
    key: "validate_shape"
    value {
      b: true
    }
  }
}
node {
  name: "save/Assign_29"
  op: "Assign"
  input: "Variable_8/Adam"
  input: "save/RestoreV2:29"
  attr {
    key: "T"
    value {
      type: DT_FLOAT
    }
  }
  attr {
    key: "_class"
    value {
      list {
        s: "loc:@Variable_8"
      }
    }
  }
  attr {
    key: "use_locking"
    value {
      b: true
    }
  }
  attr {
    key: "validate_shape"
    value {
      b: true
    }
  }
}
node {
  name: "save/Assign_30"
  op: "Assign"
  input: "Variable_8/Adam_1"
  input: "save/RestoreV2:30"
  attr {
    key: "T"
    value {
      type: DT_FLOAT
    }
  }
  attr {
    key: "_class"
    value {
      list {
        s: "loc:@Variable_8"
      }
    }
  }
  attr {
    key: "use_locking"
    value {
      b: true
    }
  }
  attr {
    key: "validate_shape"
    value {
      b: true
    }
  }
}
node {
  name: "save/Assign_31"
  op: "Assign"
  input: "Variable_9"
  input: "save/RestoreV2:31"
  attr {
    key: "T"
    value {
      type: DT_FLOAT
    }
  }
  attr {
    key: "_class"
    value {
      list {
        s: "loc:@Variable_9"
      }
    }
  }
  attr {
    key: "use_locking"
    value {
      b: true
    }
  }
  attr {
    key: "validate_shape"
    value {
      b: true
    }
  }
}
node {
  name: "save/Assign_32"
  op: "Assign"
  input: "Variable_9/Adam"
  input: "save/RestoreV2:32"
  attr {
    key: "T"
    value {
      type: DT_FLOAT
    }
  }
  attr {
    key: "_class"
    value {
      list {
        s: "loc:@Variable_9"
      }
    }
  }
  attr {
    key: "use_locking"
    value {
      b: true
    }
  }
  attr {
    key: "validate_shape"
    value {
      b: true
    }
  }
}
node {
  name: "save/Assign_33"
  op: "Assign"
  input: "Variable_9/Adam_1"
  input: "save/RestoreV2:33"
  attr {
    key: "T"
    value {
      type: DT_FLOAT
    }
  }
  attr {
    key: "_class"
    value {
      list {
        s: "loc:@Variable_9"
      }
    }
  }
  attr {
    key: "use_locking"
    value {
      b: true
    }
  }
  attr {
    key: "validate_shape"
    value {
      b: true
    }
  }
}
node {
  name: "save/Assign_34"
  op: "Assign"
  input: "beta1_power"
  input: "save/RestoreV2:34"
  attr {
    key: "T"
    value {
      type: DT_FLOAT
    }
  }
  attr {
    key: "_class"
    value {
      list {
        s: "loc:@Variable_10"
      }
    }
  }
  attr {
    key: "use_locking"
    value {
      b: true
    }
  }
  attr {
    key: "validate_shape"
    value {
      b: true
    }
  }
}
node {
  name: "save/Assign_35"
  op: "Assign"
  input: "beta2_power"
  input: "save/RestoreV2:35"
  attr {
    key: "T"
    value {
      type: DT_FLOAT
    }
  }
  attr {
    key: "_class"
    value {
      list {
        s: "loc:@Variable_10"
      }
    }
  }
  attr {
    key: "use_locking"
    value {
      b: true
    }
  }
  attr {
    key: "validate_shape"
    value {
      b: true
    }
  }
}
node {
  name: "save/restore_all"
  op: "NoOp"
  input: "^save/Assign"
  input: "^save/Assign_1"
  input: "^save/Assign_10"
  input: "^save/Assign_11"
  input: "^save/Assign_12"
  input: "^save/Assign_13"
  input: "^save/Assign_14"
  input: "^save/Assign_15"
  input: "^save/Assign_16"
  input: "^save/Assign_17"
  input: "^save/Assign_18"
  input: "^save/Assign_19"
  input: "^save/Assign_2"
  input: "^save/Assign_20"
  input: "^save/Assign_21"
  input: "^save/Assign_22"
  input: "^save/Assign_23"
  input: "^save/Assign_24"
  input: "^save/Assign_25"
  input: "^save/Assign_26"
  input: "^save/Assign_27"
  input: "^save/Assign_28"
  input: "^save/Assign_29"
  input: "^save/Assign_3"
  input: "^save/Assign_30"
  input: "^save/Assign_31"
  input: "^save/Assign_32"
  input: "^save/Assign_33"
  input: "^save/Assign_34"
  input: "^save/Assign_35"
  input: "^save/Assign_4"
  input: "^save/Assign_5"
  input: "^save/Assign_6"
  input: "^save/Assign_7"
  input: "^save/Assign_8"
  input: "^save/Assign_9"
}
node {
  name: "Softmax"
  op: "Softmax"
  input: "Add_4"
  attr {
    key: "T"
    value {
      type: DT_FLOAT
    }
  }
}
node {
  name: "output_pred"
  op: "Identity"
  input: "Softmax"
  attr {
    key: "T"
    value {
      type: DT_FLOAT
    }
  }
}
node {
  name: "ArgMax/dimension"
  op: "Const"
  attr {
    key: "dtype"
    value {
      type: DT_INT32
    }
  }
  attr {
    key: "value"
    value {
      tensor {
        dtype: DT_INT32
        tensor_shape {
        }
        int_val: 1
      }
    }
  }
}
node {
  name: "ArgMax"
  op: "ArgMax"
  input: "output_pred"
  input: "ArgMax/dimension"
  attr {
    key: "T"
    value {
      type: DT_FLOAT
    }
  }
  attr {
    key: "Tidx"
    value {
      type: DT_INT32
    }
  }
  attr {
    key: "output_type"
    value {
      type: DT_INT64
    }
  }
}
node {
  name: "output_cls"
  op: "Identity"
  input: "ArgMax"
  attr {
    key: "T"
    value {
      type: DT_INT64
    }
  }
}
node {
  name: "ArgMax_1/dimension"
  op: "Const"
  attr {
    key: "dtype"
    value {
      type: DT_INT32
    }
  }
  attr {
    key: "value"
    value {
      tensor {
        dtype: DT_INT32
        tensor_shape {
        }
        int_val: 1
      }
    }
  }
}
node {
  name: "ArgMax_1"
  op: "ArgMax"
  input: "Softmax"
  input: "ArgMax_1/dimension"
  attr {
    key: "T"
    value {
      type: DT_FLOAT
    }
  }
  attr {
    key: "Tidx"
    value {
      type: DT_INT32
    }
  }
  attr {
    key: "output_type"
    value {
      type: DT_INT64
    }
  }
}
node {
  name: "ArgMax_2/dimension"
  op: "Const"
  attr {
    key: "dtype"
    value {
      type: DT_INT32
    }
  }
  attr {
    key: "value"
    value {
      tensor {
        dtype: DT_INT32
        tensor_shape {
        }
        int_val: 1
      }
    }
  }
}
node {
  name: "ArgMax_2"
  op: "ArgMax"
  input: "Placeholder_3"
  input: "ArgMax_2/dimension"
  attr {
    key: "T"
    value {
      type: DT_FLOAT
    }
  }
  attr {
    key: "Tidx"
    value {
      type: DT_INT32
    }
  }
  attr {
    key: "output_type"
    value {
      type: DT_INT64
    }
  }
}
node {
  name: "Equal"
  op: "Equal"
  input: "ArgMax_1"
  input: "ArgMax_2"
  attr {
    key: "T"
    value {
      type: DT_INT64
    }
  }
}
node {
  name: "Cast"
  op: "Cast"
  input: "Equal"
  attr {
    key: "DstT"
    value {
      type: DT_FLOAT
    }
  }
  attr {
    key: "SrcT"
    value {
      type: DT_BOOL
    }
  }
}
node {
  name: "Const_1"
  op: "Const"
  attr {
    key: "dtype"
    value {
      type: DT_INT32
    }
  }
  attr {
    key: "value"
    value {
      tensor {
        dtype: DT_INT32
        tensor_shape {
          dim {
            size: 1
          }
        }
        int_val: 0
      }
    }
  }
}
node {
  name: "Mean_1"
  op: "Mean"
  input: "Cast"
  input: "Const_1"
  attr {
    key: "T"
    value {
      type: DT_FLOAT
    }
  }
  attr {
    key: "Tidx"
    value {
      type: DT_INT32
    }
  }
  attr {
    key: "keep_dims"
    value {
      b: false
    }
  }
}
versions {
  producer: 26
}
